03_computer_vision/models/03_pytorch_computer_vision_model_2.pth (torch, 35275 bytes, 10 tensors)

conv_block_1.0.weight f4 [10, 1, 3, 3]
000000 9c 08 aa 3e ce 52 4a 3e 1d 3b 73 be c8 63 93 3e
       0.33209693 0.1975815 -0.23753019 0.28787065
000010 b5 2f 0f 3d b6 84 3f 3e c9 fb 9d be e5 3b 23 3e
       0.034957606 0.18702969 -0.3085616 0.15940817
000020 e7 57 b5 3e 3f 8d ca be e5 9f 9a 3e eb 90 9f 3d
       0.35418627 -0.39560887 0.30200115 0.07791313
000030 1a 37 41 3c 26 ab c9 3e 02 a3 a0 3e d8 db b7 3b
       0.011792922 0.39388388 0.31374365 0.005610924
000040 41 0e d0 3e 88 5d 99 bc aa bd a3 be 24 b4 9b bd
       0.40635875 -0.018721357 -0.3198064 -0.076027185
000050 d3 09 86 bc f5 9b 24 bf 0a 45 21 bf b0 d2 c2 3a
       -0.016362106 -0.6430047 -0.6299597 0.0014863815
000060 d4 94 3d bf 14 09 2e bf 63 f0 a8 be c1 f1 13 bf
       -0.7405522 -0.679826 -0.329959 -0.5779076
000070 95 e8 41 bf 1d cb 35 bf c8 84 52 3e 43 c9 17 bf
       -0.75745517 -0.7101305 0.20558465 -0.59291476
000080 11 40 63 3e 2a 72 36 3e 93 18 49 bd cb 8d d9 3e
       0.22192408 0.17816988 -0.0490957 0.42490992
000090 52 56 9f 3d d0 5d aa 3e 76 a7 8a bc f1 5a 00 be
       0.07780136 0.33274698 -0.016925555 -0.12534691
0000a0 1d ff 59 3e 6a d1 c7 be df 3e 9c 3e 8f 69 86 3e
       0.21288724 -0.39026958 0.30516717 0.2625241
0000b0 d6 0b 04 be e7 99 11 be b9 08 40 3e 91 1c 56 3d
       -0.1289514 -0.14218865 0.18753327 0.052273337
0000c0 c3 30 2e 3e 9f 3e 51 be 9f 82 a9 be c5 44 02 be
       0.17010789 -0.20434044 -0.33107468 -0.12721546
0000d0 0b db 82 be 21 6c 8a 3e 8c f4 62 3e 3f 86 50 3e
       -0.25557742 0.2703562 0.221636 0.20363711
0000e0 1b a9 43 3e 33 99 66 3e 30 a5 39 3e f0 22 aa be
       0.19107477 0.22519378 0.1812942 -0.3322978
0000f0 a7 40 e5 3b 61 d2 1d bf 85 44 1c be b4 40 c5 bd
       0.0069962326 -0.6164914 -0.15260513 -0.09631482
000100 98 a8 7b bc 19 dc 84 be 40 eb aa 3e 0f 27 a7 be
       -0.01536002 -0.2594917 0.33382607 -0.32646987
000110 b0 6c ba be f8 e5 11 be dd af d8 3e 4c ab 55 3e
       -0.36411047 -0.14247882 0.42321673 0.20866126
000120 b6 5e 0b 3f e0 2a ab be 96 02 15 bf 4d 08 82 be
       0.5444139 -0.3343115 -0.5820707 -0.25396958
000130 3e 1b b1 be d9 ee d1 bc 3f 3a c6 3e 54 b4 f8 3e
       -0.34591097 -0.025626587 0.38716313 0.4857508
000140 b3 02 4e bd 85 df 68 be 21 8d 34 3e f5 61 0a be
       -0.050295543 -0.22741516 0.17631961 -0.1351393
000150 46 a1 4e 3e 6d 77 a1 bd 73 ba 42 3e 56 94 84 be
       0.20178708 -0.07884107 0.19016437 -0.2589442
000160 1b 49 2c be e0 9b d0 3d
       -0.16824763 0.10185981

conv_block_1.0.bias f4 [10]
000000 92 d9 2c 3d 49 58 fa 3c ba 06 a3 3e 8f 1b 33 3e
       0.04219968 0.030559676 0.3184107 0.17490982
000010 94 7e 88 3d c8 3d 3f be b0 60 1e 3e 98 52 9a bd
       0.06664768 -0.18675911 0.15466571 -0.07535285
000020 d1 12 d1 bd cb 72 a5 be
       -0.10208667 -0.32314143

conv_block_1.2.weight f4 [10, 10, 3, 3]
000000 cf 96 11 3e 80 fd 8d 3d ba 1b ec bd 2d 71 8e bd
       0.14217685 0.06933117 -0.11528726 -0.0695518
000010 76 8c 21 be 08 e4 b3 be a5 be 9d bd f3 69 49 be
       -0.15776238 -0.35134912 -0.07702378 -0.19669323
000020 0e 48 a1 be 3f c6 a8 bd c5 21 2c 3d 75 8e 8a bd
       -0.31500286 -0.082409374 0.042024393 -0.06765453
000030 61 28 06 be ea 66 82 be ff 1c 99 be 55 95 42 bd
       -0.13101341 -0.25469142 -0.29904935 -0.047505695
000040 f1 a5 1c be 12 ff c7 be 81 eb d9 3c ac ab 9d 3c
       -0.15297677 -0.3906179 0.026601555 0.019246899
000050 f4 89 07 3e 4b 76 ef 3d 1f 9b 43 3e 43 2b 2e 3e
       0.13236219 0.116924845 0.19102143 0.1700869
000060 5d 5e 2f bd b2 25 51 3d 91 32 36 3e 4f 5e 00 be
       -0.0428146 0.05106134 0.17792727 -0.12535976
000070 b1 cd 8c 3b 2e ee 14 be 0b cb 85 3d 99 5a 36 bc
       0.0042969813 -0.14543983 0.06532868 -0.011129999
000080 58 4d 33 be a0 db e1 3d 9c e8 05 bc 7f a4 96 bb
       -0.17509973 0.11028218 -0.008173134 -0.004597246
000090 67 b2 f5 bd 30 a1 47 be 4c 78 81 bd 0c 0a 10 bd
       -0.11996918 -0.19495082 -0.06321773 -0.03516583
0000a0 a4 83 06 bb 25 71 1c be 5f 5d 26 3e a8 fe cf bd
       -0.0020525241 -0.15277536 0.16246556 -0.10155994
0000b0 f2 36 c4 bd da 26 bc 3c d5 2a 5f 3d c7 ba ac 3d
       -0.095807925 0.022967745 0.054484207 0.084340625
0000c0 e2 23 c5 3d 66 90 ab bd 87 70 de 3c cc ec 39 bd
       0.09625985 -0.08377151 0.027153267 -0.045391843
0000d0 01 07 46 bc e3 23 9d bd 1a 1b 52 3e 9f cc ab bd
       -0.012086631 -0.076728605 0.20518151 -0.08388638
0000e0 cf 0a 13 3d 96 b1 5a 3d b4 43 1f 3c f7 93 1b bd
       0.03589898 0.053392015 0.0097207315 -0.037982907
0000f0 02 19 08 3d ac 8c 13 3c 04 0f 26 3c 8c d1 bc bd
       0.033226974 0.009005707 0.010135416 -0.092196554
000100 4d 0e 41 3d 01 5d 55 bc 6c 2d 0c bd ed 13 af 3d
       0.04713278 -0.013022662 -0.034223005 0.085487224
000110 b7 0c 86 3c 5c 0a 5f bd bd 6d 9d bd 55 15 8d bc
       0.016363485 -0.05445324 -0.076869465 -0.017222086
000120 11 80 bd 3d e0 28 1b bd a9 67 77 bd 27 b3 89 bc
       0.09252942 -0.03788078 -0.060401592 -0.01680906
000130 70 d5 85 bd 4d 84 26 3d a3 cb 0c 3e 9e 06 e0 bd
       -0.065348506 0.040653516 0.13749556 -0.10938762
000140 10 ca 60 bc f2 11 5f 3d a3 66 9c 3c 6b c6 19 bd
       -0.01372005 0.054460473 0.01909191 -0.03754274
000150 3a 5a 61 3d c5 e4 62 3d ff 74 21 3d d7 bc 97 bc
       0.055017687 0.055393953 0.039418217 -0.018522663
000160 c4 a8 e4 bc 3e c2 38 3c 3d 84 0a be 2c 5c 83 be
       -0.027912505 0.01127678 -0.13527007 -0.2565626
000170 ee 70 21 be 00 6d 0b 3e c9 0f 1d 3b eb 98 a6 3d
       -0.15765736 0.13615799 0.0023965708 0.081346355
000180 54 64 00 3e 1f d9 15 3e 7c e2 58 3e fc 9a 1b be
       0.12538272 0.14633606 0.21180147 -0.1519584
000190 30 97 86 be c0 60 1c be 86 6a c5 3d 83 ad a2 3d
       -0.26287222 -0.15271282 0.09639458 0.07943251
0001a0 35 3d 1e 3e 70 ab fd 3c 29 66 f2 3d 4d 54 17 3e
       0.15453036 0.030965537 0.11835892 0.14778252
0001b0 08 e0 df bc 78 29 2d 3c b8 8d 61 3d 45 38 41 3c
       -0.027328506 0.010568969 0.055066794 0.011793201
0001c0 70 5e 37 be 82 79 e4 bd 73 17 56 bd b0 05 02 bd
       -0.17907119 -0.11155988 -0.052268457 -0.031743705
0001d0 e6 24 a8 bd 36 1c cd 3d ce 6b 4f 3e 53 9d ba 3d
       -0.08210163 0.100151464 0.20255968 0.091120385
0001e0 cf 8d 7b bc 6b 1b 1f 3e 53 97 b0 bc 1c bd 07 bc
       -0.015353634 0.15537803 -0.021556532 -0.008284833
0001f0 72 9d 0f bd f0 73 00 3d 89 a0 b0 bc 69 bc 94 bd
       -0.03506226 0.031360567 -0.021560924 -0.07262499
000200 5a b6 5a be 9a 7c 1e be 98 2f 1c be f9 5f 7e 3c
       -0.21358624 -0.15477219 -0.1525253 0.015525811
000210 ca 52 14 3e c5 b8 35 3e cc f2 39 3e e3 3c d6 3c
       0.14484707 0.17746265 0.18159026 0.02615208
000220 9f 3b f7 b8 d6 0b a6 bd 69 22 b7 bd 42 da ca bd
       -0.00011788983 -0.08107726 -0.0894211 -0.099049106
000230 39 ae 34 3d 9f 71 52 bd 2a 7f a9 bc f7 7a 77 bd
       0.044111464 -0.05137789 -0.02069052 -0.060420003
000240 b1 e9 5d bd f7 94 d9 bd ba 69 c9 bd ff cb 8d ba
       -0.054177944 -0.10624116 -0.09834619 -0.0010818242
000250 74 60 8b bc 4c 7a ee 3c e9 76 59 bd 1b a7 c3 bd
       -0.017013766 0.02911105 -0.053091917 -0.09553357
000260 15 4f 39 bd 22 67 21 bd da 5d a3 bb 47 0d f8 bd
       -0.045241434 -0.039404996 -0.004985553 -0.121119075
000270 01 f0 c0 3c e3 3a 04 be 67 39 5c 3d c7 e6 65 3d
       0.023551943 -0.12913089 0.05376568 0.05612829
000280 9d d9 8c 3d d8 89 03 be d0 a1 81 3d 65 02 26 bd
       0.06877444 -0.12845552 0.063296914 -0.040529627
000290 1f fb 8c 3c 8f a2 af 3d 0d 70 19 bd ba a6 e0 bc
       0.017209588 0.085759275 -0.037460376 -0.027423251
0002a0 7d 33 86 bd 43 5c a5 bd 55 f0 9c 3d 17 32 d6 bd
       -0.06552789 -0.08074238 0.07663027 -0.10458773
0002b0 b0 ff 85 3d da 63 a1 3d 3c 14 cc 3d c3 de cb bc
       0.06542909 0.07880373 0.09964797 -0.024886495
0002c0 9a 55 b1 bd 8d 7a c2 3c df 68 6e 3d 37 09 d7 bd
       -0.08658905 0.023740077 0.05820548 -0.104998045
0002d0 5e 8e cc bc 1d 50 83 bd 8f b1 43 bc af 58 58 bd
       -0.02497023 -0.06411765 -0.011944189 -0.05281895
0002e0 db d1 35 bd a2 d4 12 bd e7 69 d3 bd a2 5b a7 3d
       -0.044389587 -0.035847314 -0.10322934 0.081717744
0002f0 6a b2 a7 3d 1b f9 8a bc 4f ae 4b bc 10 91 36 bd
       0.08188327 -0.016964486 -0.012431695 -0.044571936
000300 c2 1f c4 bd 27 36 d3 bd 4d f0 16 3d 6d a6 7b bd
       -0.0957637 -0.10313063 0.036850262 -0.061438013
000310 eb 9d 91 bd d8 42 7c bc 5f 5a 14 bd 72 18 12 bd
       -0.071101986 -0.015396796 -0.036218997 -0.035667844
000320 10 ec 23 3b 10 c3 be bc e6 ac 1c bd 05 7a 54 bd
       0.002501253 -0.023286372 -0.038250826 -0.05187418
000330 7a 8b b1 bd ae 5e b3 3d 5e 5f 2d bd a0 b8 dd 3c
       -0.08669181 0.08758293 -0.042327277 0.027065575
000340 25 31 19 bd 79 71 e6 3b 23 a5 c5 3d eb fd 3d 3d
       -0.037400384 0.00703257 0.09650638 0.046384733
000350 97 30 bd bd a0 09 1a 3d 58 dd bf 3d 04 00 bd 3c
       -0.092377834 0.037606835 0.0936839 0.023071297
000360 aa 25 8f 3d a1 a0 d3 3d e3 cc 85 bc 95 c9 a8 3c
       0.06989606 0.10333372 -0.01633305 0.020603934
000370 ee da 96 bd 6a 81 b3 bc ec c4 99 3d eb 0a 54 3d
       -0.07365976 -0.021912295 0.07508263 0.051768225
000380 47 df 8e bd 24 1c ad bd f6 85 93 bd 90 0d d5 bd
       -0.069761805 -0.08452633 -0.072032854 -0.104029775
000390 7b 94 a6 bd 8d df d5 bc 0d d4 91 3d 3e 49 90 3c
       -0.08133789 -0.026107574 0.071205236 0.01761305
0003a0 97 23 a4 bd 72 31 ad bd ea 44 4f 3d 6a 35 a4 bd
       -0.08014601 -0.084566966 0.05060283 -0.080180004
0003b0 22 00 5e bc 19 99 48 3d 1d b3 4e bd 5f 65 48 bc
       -0.013549836 0.04897413 -0.050463784 -0.0122312
0003c0 3e c2 26 bc 7b 2a ce bc 51 15 5b bd c5 78 c0 bd
       -0.010178147 -0.02516674 -0.053487126 -0.09398035
0003d0 f3 80 ae bd 8b 2d 67 bd 55 20 d1 3d df d4 50 bd
       -0.08520689 -0.056439918 0.10211245 -0.05098426
0003e0 27 4b 91 bd 1d 2d c3 3c 50 57 e1 3c ee f6 63 3d
       -0.07094412 0.023825223 0.027507454 0.055655412
0003f0 b5 82 a4 3d cd 0c 70 3d 9f 0a d6 bd 6e dc 0f 3c
       0.08032743 0.058605958 -0.104512446 0.008780582

conv_block_1.2.bias f4 [10]
000000 b6 fa da 3e 3f a9 4f 3d c1 6a 88 bd cb d6 ee 3e
       0.42769402 0.050698515 -0.06660987 0.4664825
000010 c7 cc 00 be d9 ad b0 3c 9c 7c 6f 3e 3d 2d 8b 3e
       -0.12578116 0.021567272 0.23387378 0.27182952
000020 74 77 c1 3e cf f9 5f 3d
       0.37786448 0.054681595

conv_block_2.0.weight f4 [10, 10, 3, 3]
000000 88 d6 68 3c b0 79 de bd 84 ad 99 bd 29 5a 0b 3c
       0.0142113045 -0.10863054 -0.075037986 0.008505383
000010 e2 85 98 3c 12 ef 8c 3d 3c a4 5f bd 1e 51 58 3d
       0.018618528 0.068815365 -0.054599985 0.052811734
000020 96 f2 9a 3d 45 69 5a 3d fb 95 de bd bd 29 2a bd
       0.07565801 0.05332305 -0.1086845 -0.04154371
000030 0b 25 ba bd d3 15 a8 bd 81 46 85 3d 80 a1 f1 bc
       -0.09089097 -0.08207288 0.06507588 -0.029495955
000040 d3 54 05 3d d8 1c 9c bd 12 61 83 3c b1 9b 82 bd
       0.032551598 -0.07622689 0.016037498 -0.06377352
000050 3b d2 57 3d e2 0f 3d bd 09 fa d8 bc 3d 3d bb bd
       0.052690726 -0.046157725 -0.026486414 -0.0914254
000060 df 55 ab 39 1b ed cc 3d 0e 9b 51 3d 3c d7 86 bd
       0.0003267964 0.10006162 0.051173262 -0.065840214
000070 3d 67 ea bc 91 a3 83 bd ad 9c 20 bd 2a 1f 50 3d
       -0.028613681 -0.06427682 -0.039211918 0.05081097
000080 da 68 67 bd cc cf 8d 3d ff 7d c8 bd a3 cf b3 bd
       -0.05649648 0.069244 -0.09789657 -0.08779838
000090 67 c5 9a 3c 8e 7e 24 3d 07 21 a5 3c aa 29 4c bd
       0.018892957 0.040159754 0.02015735 -0.04984442
0000a0 b1 b1 d5 3d 5f da 8a bc 88 3b 8b bd ae fb 50 bd
       0.104342826 -0.01694983 -0.06798464 -0.05102127
0000b0 49 5a cf 3d a9 24 35 3c b8 1c 8a bc 10 d7 8d bd
       0.101246424 0.011056104 -0.016859397 -0.069257855
0000c0 59 cb 8b 3c f2 06 be bd f1 bd f6 bd 9c d8 ac 3d
       0.017064737 -0.092786685 -0.12047947 0.084397525
0000d0 f0 74 78 3d cf 43 82 3d 14 65 9d bd 93 8d a0 3d
       0.060658395 0.0636059 -0.07685295 0.07839503
0000e0 39 4d a8 bd 68 8c c7 3d 40 b1 b3 3d b7 07 7d 3d
       -0.08217854 0.09743577 0.08774042 0.061774936
0000f0 f2 57 16 3e 22 dd 7e 3d ae 34 dc bc 52 ce 31 3d
       0.14681986 0.062222607 -0.026880588 0.043409653
000100 59 6b 06 bd 41 77 93 3c e9 26 02 bc a0 6c 24 bb
       -0.03281722 0.0180012 -0.007943847 -0.002508916
000110 3e f5 f5 bd 74 86 22 3c 10 33 9b bd 46 72 5b bd
       -0.12009667 0.009919751 -0.07578099 -0.053575777
000120 0c dd 36 bd da b1 96 bd c0 d4 27 bc 07 aa 0b 3e
       -0.0446444 -0.07358141 -0.010243595 0.13639079
000130 32 d2 d9 3d ef 5f 33 3d 1b 21 1f 3d 85 6a f1 bd
       0.10635795 0.04379266 0.03884993 -0.11787895
000140 70 2c 89 3c f5 74 e0 3c 0b ce cb bd 1d 3b 21 3d
       0.016744822 0.02739952 -0.09951409 0.039363015
000150 75 15 45 3d 64 7d 99 bb 2c 6d 87 bd fc 37 d7 3c
       0.048116166 -0.004684137 -0.0661262 0.026271813
000160 38 f2 f1 3c 0c c6 7f 3d 8b 8e cf bd 3b f9 25 be
       0.029534444 0.06244473 -0.1013461 -0.16208355
000170 2d 37 92 be 27 94 80 3d 59 32 56 be f2 a5 0c 3d
       -0.2855772 0.06278258 -0.20917644 0.034337945
000180 52 68 2d bd f7 eb 83 3e 14 86 94 3e 0c 63 46 3e
       -0.042335816 0.25765964 0.29008543 0.19373721
000190 8e e7 a3 3d cc d8 bd bd fd 2b 4e 3d 6d 3b 17 3c
       0.0800315 -0.09269866 0.05033492 0.009230477
0001a0 b8 b1 99 bd 79 e1 77 bd f6 6e 0e be 86 6a d4 3c
       -0.075046 -0.06051776 -0.13909516 0.0259297
0001b0 d3 10 81 3d 74 46 19 3d c6 20 5c bd 02 2d b0 bd
       0.06302037 0.037420705 -0.053742193 -0.086023346
0001c0 d6 63 81 3b a0 d6 7d bd 02 5e b1 3d b6 ab cf bd
       0.003948669 -0.06197226 0.08660509 -0.10140173
0001d0 33 f1 40 3d cb d0 aa 3e de 94 83 3e be 73 15 3e
       0.047105026 0.3336242 0.25699514 0.14594933
0001e0 de 98 94 3d 86 48 42 3f 98 7a ae bd 9c cd a4 bd
       0.072557196 0.7589191 -0.08519477 -0.080470294
0001f0 bd 0a 1a bd c0 b5 77 bf 6d df 5e 3c e2 f4 d9 3d
       -0.037607897 -0.96761703 0.013603074 0.10642411
000200 7a 89 9a bd 7d 66 ca bd 45 9a e3 3c 58 31 48 bd
       -0.07545753 -0.09882829 0.027783522 -0.048875183
000210 f2 6a 11 3d d2 d0 a0 bd fb 5f 78 bb 0a 80 1a bd
       0.03550238 -0.07852329 -0.0037899006 -0.037719764
000220 d2 99 6b be cf 1c 23 be 97 fe 52 3d 96 62 d3 3e
       -0.23007897 -0.15928958 0.051512327 0.41286153
000230 8b cf 5e 3d dc 1a b1 3e d5 ce 48 3e 46 da 93 be
       0.054397147 0.34590805 0.1961015 -0.28877467
000240 b0 f1 c4 be 42 cf 39 be 74 d4 a9 3d 76 3b 74 be
       -0.38465643 -0.18145469 0.08292475 -0.23850808
000250 d3 df 00 3e ad 0f 45 3e 06 3d 87 3e 96 0c 42 3e
       0.12585382 0.19244261 0.26413745 0.18950114
000260 8e b3 90 be 7f 07 bd bd c1 2f 56 bd f7 ce bc 3d
       -0.2826199 -0.092299454 -0.052291635 0.09219163
000270 7d f0 21 be 0c 7f d7 3e 0a d7 02 3e 1d ac 1c 3e
       -0.15814395 0.42089117 0.12777343 0.15300031
000280 a8 cb 8c 3c 37 7d d7 be f3 c1 8e be 4b ab 08 3e
       0.017186955 -0.4208772 -0.27882347 0.13346593
000290 38 ac b5 3e 59 73 43 be dc 89 a9 3e a7 64 26 3e
       0.35482955 -0.1908697 0.3311299 0.16249333
0002a0 a5 7c b8 3e 06 7b 49 3d d6 e0 e0 be c4 f6 6c be
       0.36032596 0.04918959 -0.43921536 -0.23141009
0002b0 f9 12 6a be e3 44 a9 bd fa 2b 9e 3d cf b8 d4 be
       -0.228588 -0.08265092 0.077232316 -0.41547248
0002c0 1e 14 3b 3c 4e e9 74 bd 4e 7f dd bc ca c7 1e 3e
       0.0114183705 -0.05979281 -0.027038243 0.15505901
0002d0 4a 77 11 bd bf b4 e0 3d f0 84 b0 3d 2e bc a9 bd
       -0.035514154 0.109719746 0.08619106 -0.082878456
0002e0 0d 7e 8c bd d2 f2 b0 bd ba b0 78 bd ed 85 c7 bc
       -0.0685998 -0.08640064 -0.060715415 -0.024355853
0002f0 81 92 c7 ba 6b 54 04 bd d8 f5 46 bd 09 08 26 bc
       -0.0015226157 -0.03230707 -0.0485743 -0.010133752
000300 89 fd 24 bd 60 7f d9 3d da d8 9e bc 50 c0 ab bd
       -0.040280852 0.10619998 -0.019390512 -0.0838629
000310 be e7 f8 3c 60 fc c1 bb df 4c a5 3d 1d ec 86 3d
       0.03038394 -0.005919978 0.080713026 0.06588004
000320 bc 4f c6 3d ac 17 9e bd 38 c3 8a 3d 09 2b b5 3d
       0.09683177 -0.07719359 0.06775516 0.08846099
000330 04 28 55 bd 4a 6f c6 3d f2 d4 a1 3d 26 c8 cf bc
       -0.052040115 0.096891955 0.07901944 -0.025363993
000340 b6 d6 76 3c 64 c8 80 bd 11 94 e2 bd b8 f7 ab bb
       0.0150658395 -0.062882215 -0.11063398 -0.0052480362
000350 22 d9 f5 bb 52 0f ba bd e1 63 20 3c f2 99 17 be
       -0.007502691 -0.09084953 0.009789438 -0.14804819
000360 8c a8 aa 3d 17 71 cb 3d e2 cc 81 3c f4 c9 85 bd
       0.08332929 0.099336796 0.015844766 -0.0653266
000370 8b 8d 71 3d dc 1b 5b 3c bf 76 82 3c c9 b1 f3 3c
       0.058972877 0.013373341 0.015925763 0.02974786
000380 47 ef 80 3d bf c5 77 bd 48 27 8c bd 06 c0 ff ba
       0.062956385 -0.06049132 -0.0684343 -0.0019512183
000390 1f 9e 22 bc 54 5e 5c 3d bd 42 76 bd c1 d1 bd bb
       -0.009925394 0.053800896 -0.06012224 -0.005792827
0003a0 4e e1 a0 3b 80 25 77 bd 07 1b 89 3d 91 a2 ae 3b
       0.004909671 -0.060338497 0.06694608 0.005329438
0003b0 3d 4e db bd 18 0d 1f bc e7 28 6c bd 9c 0d 53 bb
       -0.10708282 -0.009707712 -0.057656195 -0.0032204157
0003c0 b2 e1 cf bc 87 54 ef bd c0 51 43 bd b1 80 b4 bc
       -0.025376175 -0.11686044 -0.047685385 -0.022034021
0003d0 7a 7f 25 bd 74 f3 8b 3d b5 45 a7 bc 30 6e 85 3d
       -0.040404774 0.068335444 -0.020418981 0.06515157
0003e0 3b c6 2c 3c 22 7d c3 bd 98 2f 98 3c a5 0c 75 3d
       0.010545309 -0.095453516 0.018577382 0.059826512
0003f0 ce 6c 95 bd 6c f3 9e bd 59 04 a1 3d 8b 01 cd 3d
       -0.072961435 -0.07761273 0.078621574 0.1001006

conv_block_2.0.bias f4 [10]
000000 ca 00 bd bd 34 0e 54 bd 73 ba 94 3b ba ce fd bd
       -0.09228666 -0.051771358 0.004538828 -0.123929456
000010 ac df 76 bd 91 05 95 bb 9d fa 4f bc 59 5f 10 3e
       -0.060271904 -0.0045477827 -0.012694028 0.14098872
000020 c3 5c 05 3f a6 72 89 bc
       0.5209467 -0.016778301

conv_block_2.2.weight f4 [10, 10, 3, 3]
000000 f7 41 91 bd 37 47 5a bd 11 f5 28 bc e7 5d 11 bd
       -0.0709266 -0.053290572 -0.010312335 -0.035489943
000010 5b 38 97 3d 66 79 a0 3b d0 94 a9 3c 12 3b af bc
       0.07383796 0.0048972843 0.020700842 -0.021390472
000020 a3 e1 b1 3d d7 b9 34 be 84 75 09 bd f2 33 af bc
       0.08685615 -0.17649017 -0.033559337 -0.021387074
000030 27 d6 ce be 63 4e d0 3d e9 06 f4 bd 8a 3b fa be
       -0.4039776 0.10171201 -0.119153805 -0.4887355
000040 cc a7 a8 3e 06 dd c6 be ce b1 93 3d 4e 62 1c 3c
       0.3294052 -0.38840503 0.07211648 0.009544922
000050 e8 08 96 3d ed 2e 6c bd 6b 17 74 3d 84 9e cb bb
       0.073259175 -0.05766194 0.059592646 -0.006213965
000060 74 fc 02 3d d1 f6 ac 3d ad 8a d9 bd 95 27 8c be
       0.03197904 0.08445514 -0.106221534 -0.2737395
000070 7d b3 b9 3e c9 84 a9 be a4 ce b9 be 60 94 60 3e
       0.3626975 -0.3310912 -0.36290467 0.219316
000080 f1 8d 1b be 32 f8 22 be 9c 22 1a 3e 49 86 11 bd
       -0.15190865 -0.15914991 0.15052265 -0.035528455
000090 b4 ba 8d bd dc 9b 0f 3d 6a 6e e5 bb 7f 62 16 bd
       -0.069203764 0.03506075 -0.007001688 -0.036715027
0000a0 3b 09 b3 bc ac d2 6b bd 77 34 f6 bd 04 36 8c bd
       -0.021854987 -0.05757396 -0.120217256 -0.0684624
0000b0 c0 da 2d be 93 dd 97 bd db e1 61 bd 50 f6 bf 3d
       -0.16977978 -0.07415309 -0.055147033 0.09373152
0000c0 7e 8d c4 bc 03 90 d9 3c 49 44 7d 3d d0 08 7e bb
       -0.02399325 0.026557928 0.0618327 -0.0038762577
0000d0 04 2b 78 bd 6f 85 9e bd 35 87 fc bc 3d 03 2c 3d
       -0.060587898 -0.07740294 -0.03082619 0.041995276
0000e0 83 a4 b1 bd 87 94 1f 3c b8 39 0d 3d 86 ac b2 3d
       -0.08673956 0.0097400015 0.034478873 0.087243125
0000f0 41 a3 1e 3d 89 0d d8 3c 10 0a 9a 3d 6e d1 70 be
       0.03872991 0.026373642 0.075214505 -0.23517391
000100 0c 6b 76 3e 07 2e 0f bf cf c6 b8 be 45 02 0f 3e
       0.24064273 -0.5592961 -0.3608918 0.1396571
000110 00 d3 30 be 8f 49 05 3e fc 89 52 3e 17 02 ed bc
       -0.1726799 0.13016342 0.2056045 -0.02893166
000120 d4 41 8c 3d c5 e6 92 be 83 94 9a be dd dd c2 3e
       0.06848493 -0.28691688 -0.3019143 0.38059893
000130 3c a4 38 3c 73 50 8a 3d 80 1e d3 be 32 da ee be
       0.011269625 0.06753626 -0.41234207 -0.46650845
000140 c2 20 c3 bd 70 3b 46 bd 15 de 45 3d 9b c9 8e bd
       -0.095277324 -0.048396528 0.048307497 -0.06972047
000150 3c 3f 98 3c bc 38 af bd 06 6a 64 3b 84 38 2b 3d
       0.01858484 -0.08555743 0.0034853234 0.041801944
000160 39 34 fb bc ea 23 6f bd c0 bf 11 3d 65 4e e6 bc
       -0.03066455 -0.05838386 0.035583258 -0.028113553
000170 d2 f9 23 bd c7 80 95 bd f6 31 a4 bc 71 cb 90 bd
       -0.04003317 -0.07299953 -0.020043354 -0.07070053
000180 3c b3 da 3d 5a 0f 68 bd fc 23 ad bb db 97 e6 bd
       0.106787175 -0.056655265 -0.0052838307 -0.11259433
000190 40 d3 8d bc a3 2e 2c 3d 56 8c 96 3e 1f 6b 02 bf
       -0.017312646 0.042036664 0.29403943 -0.50944704
0001a0 7e 80 9c 3d 3a e8 d0 3e f6 27 17 bf 86 15 5d 3e
       0.076416954 0.40802175 -0.5904535 0.21590242
0001b0 70 2f ca 3b 92 5c 97 3c 19 aa 9f 3d e9 a5 83 3d
       0.006170206 0.018476758 0.077961154 0.06428129
0001c0 57 48 40 bd ee d2 42 bd 5d 5a 20 bd 54 68 82 bd
       -0.04694399 -0.04756444 -0.039148677 -0.06367555
0001d0 9b dd 0d bd 20 29 1f be 0a 61 c3 bd 8c b3 76 bd
       -0.034635168 -0.15543032 -0.09539993 -0.060229823
0001e0 3b c9 f1 3d 68 08 4e be d6 36 9b bd 7e 90 0e 3e
       0.1180596 -0.20120394 -0.075788185 0.13922307
0001f0 bb a2 66 be 3e f3 dd bb fd 9b cd bd 86 3b fe bd
       -0.22523014 -0.0067733815 -0.10039518 -0.12413697
000200 78 98 a5 ba 79 bc 0d bd 45 f9 92 be aa 69 33 ba
       -0.001263394 -0.03460357 -0.28705803 -0.0006844053
000210 37 26 41 3e 9f d8 9e be 0f db 19 be e6 14 87 3c
       0.18862234 -0.31024644 -0.1502497 0.016489457
000220 08 24 2c 3d a6 e5 6c 3d 69 e8 76 bd 8c 62 be bd
       0.04202655 0.057836197 -0.060280237 -0.0929614
000230 c6 b8 87 ba a3 b5 d6 bc 23 bf 08 3d 4f a3 d5 bc
       -0.0010354749 -0.026209658 0.033385407 -0.026078848
000240 54 0c aa 3d df 20 84 3c 66 7e bc 3d 73 5f 9f bd
       0.08303133 0.016128955 0.09203796 -0.07781877
000250 27 73 3a 3d 11 12 1c 3c 95 0b 8a bd 8f 4d 3b 3d
       0.045519974 0.009525792 -0.0674049 0.045728263
000260 7a 12 e2 bd e9 85 77 bc e0 97 0d 3e 9b 97 6d bd
       -0.110386804 -0.01510761 0.13827467 -0.05800591
000270 58 e6 f0 bc 15 af 95 be 37 bb b0 3e 59 91 3b 3d
       -0.029406711 -0.2923514 0.34517834 0.04579291
000280 2f 15 52 bf da f6 00 3f b3 2c b6 bd 51 72 b3 be
       -0.82063574 0.50376666 -0.088952444 -0.35048154
000290 a4 86 5f be 17 b9 c8 3d bd c0 0f bd 26 48 9f be
       -0.21828705 0.09800928 -0.03509592 -0.31109732
0002a0 11 46 99 3c 61 0d b8 3e 00 43 8d be c3 b8 bd bc
       0.018710168 0.35947707 -0.2759018 -0.02315939
0002b0 60 15 93 3d 1a 48 0f 3e 85 04 d6 bd 41 98 0a be
       0.07181811 0.13992348 -0.10450081 -0.13534643
0002c0 51 77 ae 3c 9c 2f 04 bd 21 48 99 bd 31 6f d9 bd
       0.021297129 -0.032271966 -0.074844606 -0.10616911
0002d0 b4 d1 93 3d 7c e3 6c bc d9 37 30 bd 04 b7 5d bd
       0.07217732 -0.014458533 -0.04302201 -0.054129615
0002e0 b7 82 e7 bc 38 49 18 3d 27 b7 24 bc 5d 0e 9d 3d
       -0.028260572 0.0371792 -0.010053433 0.07668755
0002f0 83 03 db bc c3 b0 76 be e3 3f 22 be 1f d6 15 be
       -0.026735073 -0.24090867 -0.15844683 -0.14632462
000300 7c 0b b2 be 9a 28 34 be 08 ca 78 3e d5 b0 a4 be
       -0.34774387 -0.17593613 0.24295819 -0.32166162
000310 cc 3a e1 3d 34 7c 88 3e 9e 6d 5a bb 35 4f 1a 3c
       0.10997543 0.2665726 -0.0033329497 0.0094182985
000320 4e 20 bc bc 88 09 4d bc a2 26 70 3d 10 b6 61 3d
       -0.022964623 -0.012514479 0.058630593 0.05510527
000330 a8 bf 07 3d 1a e8 56 bd bf cc 43 3d ca 0a 38 be
       0.033141762 -0.052467443 0.047802683 -0.17972866
000340 8d 4c 44 3e b2 99 88 be 92 2d 0d 3f b5 c1 b5 bb
       0.19169827 -0.2667976 0.5514766 -0.0055467733
000350 ee 20 9d be c2 25 e6 be 52 1e 4d be 77 15 3b 3d
       -0.30689186 -0.44950682 -0.20031098 0.045674767
000360 20 17 7e 3d 73 5c d0 bd 6a 44 1a be 41 21 6d bd
       0.062033772 -0.10173883 -0.1506516 -0.05789304
000370 0b c7 98 3d ea 19 e1 bd ec 99 27 3d 87 b5 76 3d
       0.074598394 -0.10991271 0.040918276 0.06023171
000380 2f b6 d4 3d de ce b0 3d f4 dc 90 3b a7 34 e9 bd
       0.10386311 0.08633207 0.004420871 -0.11386996
000390 19 af be 3d bb fe 91 3c 0f 12 b2 3a a0 58 a0 bd
       0.09310741 0.01782166 0.0013585704 -0.07829404
0003a0 f4 8f bc bb 85 fd 3f bd a8 35 9f 3d 33 53 45 3d
       -0.0057544652 -0.046872634 0.07773906 0.048175048
0003b0 a4 f2 54 3d dc 7d 31 3d 3e 53 b7 bd fd 46 91 bd
       0.051989213 0.04333292 -0.08951424 -0.07093618
0003c0 18 b7 98 bd c8 36 8e bd 4f f8 50 3d a7 ef 2d bd
       -0.07456797 -0.069440424 0.051018056 -0.04246488
0003d0 a3 69 dd 3e 51 5f d0 3d b7 4c 23 be c0 e3 b5 bd
       0.43244657 0.1017443 -0.15947233 -0.088813305
0003e0 f4 a0 53 3e eb 09 2b be 50 48 93 be fb 81 d3 3c
       0.20666867 -0.16703002 -0.28766108 0.025818815
0003f0 6c 2f 24 3e f5 62 ba be 37 87 44 be aa 2c b3 be
       0.16033715 -0.36403623 -0.19192205 -0.34995013

conv_block_2.2.bias f4 [10]
000000 04 f5 3a 3f 24 aa 75 3d e4 59 22 3e 0e 10 4f bd
       0.73030114 0.059976712 0.15854603 -0.05055242
000010 69 08 a5 bd bb 9b 35 3e 66 7e 3c 3b 06 d8 33 bc
       -0.08058245 0.17735188 0.0028761863 -0.010976797
000020 8c 72 f5 3d 46 80 e4 bd
       0.11984739 -0.11157279

classifier.1.weight f4 [10, 490]
000000 d1 29 df 3d c7 60 32 3e 34 09 2b bc 18 b2 9a 3c
       0.10896648 0.1741973 -0.010439206 0.01888375
000010 d7 09 18 be 68 85 6b 3e 53 e7 2c 3e 82 df 4a bc
       -0.14847504 0.23000109 0.16885118 -0.01238239
000020 27 d6 8c 3b 06 be 5f 3e a2 c0 de 3c 28 56 ea bc
       0.00429799 0.21849832 0.027191464 -0.028605536
000030 d8 ca ff bd 9b 1b c7 bd 48 d5 36 bd ee 35 06 be
       -0.12489861 -0.09722062 -0.044636995 -0.1310651
000040 c9 09 91 3d 05 8d f7 bd d6 f9 0a 3d 17 69 ea bd
       0.070819445 -0.12087444 0.03392967 -0.114458255
000050 6f a7 2c be 61 ce 0b be 9e 96 1e bd f3 b0 23 3e
       -0.16860746 -0.13652946 -0.03871786 0.1598547
000060 27 47 aa bd 12 ef b7 3d d9 99 02 bd 4c b1 69 bd
       -0.083143525 0.08981146 -0.031885 -0.05705385
000070 fc 82 f4 bd c1 9f 22 bc 9c 8f 88 3d ff a9 c9 bc
       -0.11939046 -0.009925784 0.06668016 -0.024617193
000080 ec e3 b1 3d 22 7f b7 3c 31 6c 45 3d 75 c5 c1 bc
       0.08686051 0.022399489 0.048198882 -0.023653725
000090 28 84 a5 bd 74 2d 9e 3d 4d 2b 59 3d 44 5a 1e 3d
       -0.080818474 0.07723513 0.05301981 0.038660303
0000a0 8b f6 53 3d c8 22 c8 3d 3f 15 9b 3d a0 25 2e 3b
       0.051748794 0.09772259 0.07572412 0.002657272
0000b0 cb 32 4c 3d 48 7a ed 3d 6b 85 65 3d 38 36 ce 3c
       0.049853127 0.11595589 0.05603544 0.025172338
0000c0 51 42 98 3d a1 ee d1 3d f0 53 ad 3d f9 9b 3c be
       0.07434524 0.10250593 0.084632754 -0.18418874
0000d0 25 c8 d1 bd 80 00 88 3d 9b 5b 6c 3b b3 1b dd 3d
       -0.10243253 0.0664072 0.0036065343 0.10796299
0000e0 28 b3 36 3e ed 84 5a be b6 c7 1d be 94 88 26 be
       0.1784178 -0.2133977 -0.15408215 -0.16263038
0000f0 b8 fd e5 bc 77 90 a5 3d 7a fd 31 bd d1 43 f3 3d
       -0.028075084 0.08084195 -0.043454625 0.11878169
000100 15 f2 11 3e 21 ea e9 ba 5b 5c 8a 3c 94 25 38 bd
       0.14252503 -0.0017846265 0.016889742 -0.044957712
000110 2e 96 7f 3e f7 b8 9a 3b 39 93 fa 3d ff 41 fd 3d
       0.24959633 0.0047217566 0.12235112 0.123661034
000120 05 fd 20 3d 4c b8 72 bd 6b f3 01 bd 0f 9c ad 3e
       0.0393038 -0.05925779 -0.031726282 0.33908126
000130 c2 1d 9d bd ee 81 79 3d 70 cb 48 3d b5 6b ba bd
       -0.076716915 0.060914926 0.049022138 -0.09102575
000140 56 f8 cd bd 1b 5b bd 3c 44 2b 0d 3d b4 01 09 be
       -0.10057132 0.023114732 0.03446509 -0.13379556
000150 51 12 28 be 30 c7 aa 3d 6d 81 77 be db de 7c be
       -0.16413237 0.08338773 -0.24170466 -0.24694388
000160 d1 11 32 be 80 88 bb bd a5 72 1f bd 2e d5 ef bc
       -0.17389609 -0.09156895 -0.038927693 -0.029276457
000170 6a 0e dc 3c 60 ee 0d 3e 0d 7b 9d bd 2f b9 8c bc
       0.026862342 0.13860464 -0.07689486 -0.017178146
000180 47 d4 09 be df a2 ba 3a 2b ca ef 3d c2 94 84 3d
       -0.13459884 0.0014239213 0.11708482 0.06473686
000190 bd 36 b6 3e 03 d6 de 3d 30 fb d3 3d f6 19 64 3c
       0.35588637 0.10880663 0.103506446 0.013922205
0001a0 d9 87 b6 bc 4b c6 ab 3d dc a7 ac 3d ae 39 cd 3d
       -0.022281574 0.08387431 0.08430454 0.10020767
0001b0 7b 9f 44 3c 46 0d 68 bd b2 f4 a0 3c 8f 7c 5a 3c
       0.012000914 -0.056653284 0.01964793 0.013335361
0001c0 3c f8 09 3e bb ef 36 3e 83 fc 38 3e 72 54 7d bc
       0.134736 0.17864887 0.18065076 -0.015462028
0001d0 25 47 22 3e 1b e1 87 bc 77 22 39 bd 6a 67 2e 3d
       0.15847452 -0.01658683 -0.045198884 0.042579092
0001e0 a1 ae 58 be 2c 31 b1 bd f9 94 36 bd 46 d1 c2 3d
       -0.21160366 -0.08651957 -0.044575665 0.09512572
0001f0 70 25 46 3d 00 7a 7b bd 20 23 bb bb 07 7d 56 bd
       0.048375547 -0.061395645 -0.0057109743 -0.05236533
000200 e1 11 07 3c 47 a0 f2 bd 6f 27 c5 bd 22 3f 03 bd
       0.008244009 -0.11846977 -0.09626662 -0.03204263
000210 42 d2 43 bd ad 2e 9a bd 12 ef eb bc b9 2e 63 3d
       -0.04780794 -0.07528434 -0.028800521 0.05546448
000220 3e 60 1e be 87 1d 2a 3a b6 93 d0 bd 70 19 21 3c
       -0.15466401 0.0006489385 -0.101844236 0.009832725
000230 70 3e 03 be 67 46 6d 3d 16 8f 87 3d 7f 56 bf bd
       -0.12816787 0.05792847 0.06619088 -0.0934267
000240 5f cf 20 bd 00 3b 49 bc 90 8e 14 bc be 9a 53 3e
       -0.039260264 -0.012282133 -0.009067193 0.20664498
000250 03 ae ac bd 29 9a 8a bd 7f 70 4b bd 90 9a 63 3d
       -0.084316276 -0.06767685 -0.04966783 0.055567324
000260 d0 53 95 3d 20 a9 77 3d 7a f8 14 3c 67 9b 06 be
       0.072913766 0.060464025 0.009092445 -0.13145219
000270 8f 51 6e be 42 28 be bd ea a4 82 3d 02 55 45 be
       -0.232733 -0.09285022 0.06379111 -0.19270709
000280 7a ce 36 be e7 7f 75 3d 18 07 70 3c a2 28 ea bd
       -0.17852202 0.05993643 0.014650129 -0.11433531
000290 c7 ad 1b 3d 61 9c 3a 3d 6a d7 b5 bd e8 07 a7 3d
       0.038007524 0.04555929 -0.088789776 0.08155805
0002a0 31 88 e8 3d 69 97 3c 3e cc 72 c3 3c 02 83 00 3b
       0.113541014 0.18417133 0.02385845 0.0019609337
0002b0 fc 52 a7 3d 0a 98 8d bd 24 7b 73 3e e5 2e 4e 3c
       0.08170125 -0.06913765 0.23777443 0.012584423
0002c0 e9 b5 b7 3d a1 c4 1e bd 7a 37 9d bd 7d a7 f9 bc
       0.089702435 -0.03876174 -0.07676597 -0.030475372
0002d0 84 68 1b bd 35 e4 31 3e e8 94 f4 bd 8b 59 7c 3e
       -0.03794147 0.1737221 -0.11942464 0.24643533
0002e0 48 94 e1 bd 03 6a 30 be 6b 63 6b bd c9 da e0 bc
       -0.110146105 -0.1722794 -0.05746786 -0.027448075
0002f0 0d 21 06 3e a6 b3 10 be cd d1 ab 3c 20 67 2a be
       0.13098545 -0.1413103 0.020974064 -0.16640902
000300 5f ed 33 bd 30 ce bc bd cf 7c bc 3a d1 55 2f 3d
       -0.043927547 -0.09219015 0.0014380458 0.04280645
000310 5b 51 03 3c e1 f1 c6 bc 7b 16 24 bd ab 12 87 bc
       0.008015002 -0.024285259 -0.0400605 -0.016488394
000320 17 79 27 3d a1 33 06 bb 5c f8 5a 3c c7 df 9e bc
       0.040886965 -0.002047755 0.013364878 -0.019393815
000330 65 cd 08 3c 02 a1 25 3d 48 cc 10 3e 6d ab 05 3e
       0.008349751 0.040436752 0.14140427 0.13053675
000340 c1 85 8a bc ca fa e2 bc 30 15 bf 3c 0e a4 b6 3c
       -0.016909482 -0.027707476 0.023325533 0.022295024
000350 29 52 dd 3b 5b 7a f6 3d e3 6c 14 3e bc a7 9b 3c
       0.006754179 0.12035056 0.14494662 0.01900088
000360 e7 eb 11 3e a3 45 7f 3d 42 a7 a9 bb e4 45 5d bd
       0.14250146 0.06232227 -0.0051774094 -0.05402173
000370 fe 21 0a 3d 40 88 ae 3d 05 63 e5 bc cf 40 93 3d
       0.033723824 0.085220814 -0.028001318 0.07190096
000380 38 94 01 3d 74 34 56 3d 00 9e 87 bc 49 03 1a 3d
       0.031635493 0.052296117 -0.016554832 0.03760079
000390 95 b2 9a bd 1e c2 6b bd f4 e7 a8 bc 29 b2 3c 3d
       -0.07553593 -0.05755817 -0.020618416 0.046068344
0003a0 49 aa 4e bd ac 95 88 bc ff 61 65 bc ca ad 1d be
       -0.050455365 -0.016672932 -0.014000415 -0.15398327
0003b0 5c 37 be bd 99 9e a2 bd 0b 2f b3 bb 08 92 44 bd
       -0.09287903 -0.07940406 -0.0054682544 -0.04799083
0003c0 6a ce 61 bd f8 fc 90 3c 2d 66 0e bd 43 41 1f 3d
       -0.055128492 0.01769875 -0.03476541 0.038880598
0003d0 77 ec 8a bd f2 31 09 bd 14 cf ca bc 5d ad a0 bd
       -0.06783383 -0.033494897 -0.024756946 -0.078455664
0003e0 13 84 85 3d 15 f1 ba 3c 39 c0 ff 3d e9 bf 81 bc
       0.06519332 0.022820035 0.124878354 -0.01583858
0003f0 83 20 27 3c 2b 47 b7 3d 67 06 8c 3d 94 33 2d 3e
       0.0102006225 0.08949121 0.06837159 0.16914207

classifier.1.bias f4 [10]
000000 b8 89 dd 3d 29 ba 52 be 75 da ad 3e 43 cb 85 3b
       0.108172834 -0.20578827 0.33955732 0.0040830686
000010 c8 8f c3 be 29 2a ef bd 72 40 f7 3d a1 89 06 3c
       -0.38195634 -0.11677963 0.12072839 0.008211524
000020 9b 37 47 3e 4d 5f dc bd
       0.19454806 -0.10760365
