03_computer_vision/models/03_pytorch_computer_vision_model_2.pth (torch, 35275 bytes, 10 tensors)

conv_block_1.0.weight f4 [10, 1, 3, 3]
00000000: ec49 613e e8c2 993d 72e2 2abe ebba cc3e
00000010: 9a6f d83b 796e 6f3e b94d 72be 27dd 9a3d
00000020: 41f3 a53e 73c7 99be 7e60 353e 2281 dbbb
00000030: fbb5 093d 636d 003f 20c6 6a3e 7f74 c2bc
00000040: a381 b23e c660 04be 1a40 f4bd cb4f a6bc
00000050: 4a59 1d3d 76eb 4abf 8a78 2cbf b145 7c3e
00000060: 9e8e 63bf 5adc 50bf f05c 87be 9777 2dbf
00000070: ab77 35bf 32b6 4cbf 6274 8a3e 83a2 cbbe
00000080: 0225 703e 610a 603e ce6c 67bd c0e5 a23e
00000090: 799b 3fbc e10d d63d 5a62 54bb f867 16be
000000a0: c087 803e 3536 62be 9e59 7a3e f6b8 c73e
000000b0: dbc3 323c f950 15be 7231 433e b050 693d
000000c0: cc24 2f3e ed1c 4fbe eb5f a9be bf44 04be
000000d0: 2023 82be 91f7 893e 253b 1e3e b6a9 003e
000000e0: 3c6a b93d d87e 433e 77a7 df3d babd 09bf
000000f0: 7c82 e1bd c240 3bbf c6b6 babe 3d87 7ebe
00000100: 7e9d e1bc 279f 66be d81c a43e 3940 81be
00000110: 63aa 9fbe 56cd 18be c3fd d53e f703 2c3e
00000120: 2974 f73e dace 1abf fbfa 4bbf bcf9 34be
00000130: de40 c2be 97e1 32bd c9d0 003f 0fc2 013f
00000140: 33cb 8bbb c089 68be 9f49 343e 9579 0abe
00000150: e0b7 4d3e feca a3bd 2cd2 413e 37bd 84be
00000160: 948b 2cbe e148 cf3d
0.22000855 0.075078785 -0.16687945 0.39986357 0.006605101 0.23381986 -0.23662461 0.07561713
0.3241215 -0.3003498 0.1771259 -0.0066987434 0.033620816 0.5016691 0.22927141 -0.02373719
0.3486453 -0.12927541 -0.11926289 -0.02030172 0.03841523 -0.79265535 -0.6737143 0.2463596
-0.8888949 -0.8158623 -0.26438093 -0.67760605 -0.70885724 -0.7996551 0.27041918 -0.39772424
0.23451617 0.21878959 -0.05650025 0.3181591 -0.011694782 0.10451866 -0.0032407255 -0.14688098
0.2510357 -0.22090991 0.24448249 0.39008301 0.010910953 -0.1458167 0.1906183 0.056961715
0.1710388 -0.20225878 -0.33080992 -0.1291685 -0.25417423 0.2694669 0.1545225 0.1256474
0.09053466 0.19091356 0.10920613 -0.53805125 -0.11011216 -0.7314569 -0.3646757 -0.24856277
-0.027540918 -0.2252165 0.32053256 -0.2524431 -0.31184682 -0.1492208 0.41795167 0.16798387
0.4833081 -0.6047188 -0.7967984 -0.17673391 -0.37940115 -0.04367217 0.5031858 0.50686735
-0.0042661666 -0.22708797 0.17606209 -0.13522942 0.20089674 -0.07997702 0.1892783 -0.2592561
-0.1685012 0.101213224

conv_block_1.0.bias f4 [10]
00000000: 0eae 4a3d a138 953d d8bd 893e cb08 3d3e
00000010: c9d2 6f3c adc3 3dbe 6a20 243e d4eb 12be
00000020: b4b3 0ebe 12f0 a5be
0.049482398 0.07286192 0.26902652 0.18460386 0.014637657 -0.18531676 0.1602799 -0.14347774
-0.13935739 -0.32409722

conv_block_1.2.weight f4 [10, 10, 3, 3]
00000000: 5094 da3d 9ebe e43d c40c dbbd b0cf 16be
00000010: fa89 24be 72fa d9be 6215 56be e69f 65be
00000020: 20d6 b1be 588a d7bc 643a a73d c829 94bd
00000030: 5751 3fbe b024 7fbe 5ae3 9fbe 81c7 cabd
00000040: ae33 eebd 3df3 b6be e82c fb3c 04f1 2cbc
00000050: f11c 533d 213e 473e 1fee 663e 10b3 f23d
00000060: 898d 41bc d9ea 223d 9da7 c33d 6447 19be
00000070: 1a88 47bd cfd4 00be 6d59 7b3d 2b5f 17bd
00000080: 1c23 9fbd afdf 243e 65aa e0ba 55f0 e63d
00000090: e273 f1bd 1f27 fbbd 4389 ab3b 3a81 0bbe
000000a0: 0e12 2dbd 9984 2fbe f67b 0d3e 8783 c6bd
000000b0: 4b58 b8bd 31cd b93c 8381 5f3d 76e0 ad3d
000000c0: ab9b c43d 83d8 aabd fab0 e03c 72c8 39bd
000000d0: c602 46bc a4ef 9cbd bd57 743e bbf4 e3bb
000000e0: 0cf9 083e 7194 cb3d a84b eb3c d9f9 153d
000000f0: 8330 973c 8ba6 2f3c 68d3 a53d aea1 c1bd
00000100: c67d 433d 992a 6dbc c0c0 48bd 4590 b23d
00000110: d072 943c 6440 91bd 6d05 98bd 5f6f 52bc
00000120: 2a0d 11ba 983c 5cbd be7c 8abd 19ac e5bd
00000130: 6e6e b9bd 669e 003d ae4e 313e b21f e4bd
00000140: 60b1 93bc cc01 5f3d c2a1 9c3c dcc1 19bd
00000150: d759 613d c5e4 623d 7d73 213d d7bc 97bc
00000160: c4a8 e4bc 3ec2 383c df13 b4bd 68d0 2ebe
00000170: fb06 a6bd a9de 1a3d 4b96 0abd 5c57 ac3d
00000180: 7f5d 803b 8f25 de3d d295 373e 4a16 adbd
00000190: 4658 65be 3fb8 b7bd cca7 d33d 6397 263d
000001a0: ac62 b63d ac11 4dbc 4570 6ebd d9d2 203d
000001b0: 7e42 05bc 40fd 493d ad01 983d 2029 6f3d
000001c0: fc1a bbbd 43f0 b1bd f50f 80bc 7f3a 8a3d
000001d0: 8358 16bd 7f2b b13d ac7b 383e 579f 803d
000001e0: 5841 d33c 4257 fe3d 2fdf 36bc 3a03 4f3c
000001f0: 6d53 11bc 1564 863c 86a2 5e3c 509c 06bd
00000200: 6ea1 2ebe 324c fabd 68bd 10be 7c1a 283d
00000210: 1ce9 b73d c101 eb3d 45dd 113e 0c87 df3c
00000220: 41be 37ba 4ef0 a3bd c932 b8bd aad4 cabd
00000230: 0f59 373d f1b7 51bd 134e afbc a2e0 79bd
00000240: 9b8d bfbc 1330 9cbd 3d7d bebd a66b 083d
00000250: 2505 e5bc 56c4 4d3d 7381 1ebd 985e bdbd
00000260: 822f ccbc afcd debc 25e8 11bb f156 fbbd
00000270: 39af 193c c68e fdbd 2721 723d ee68 633d
00000280: f672 8f3d 65ee d5bd bfa0 993d deba d23c
00000290: 6b5a 9a3d 0526 343e c7cd 34bd 803c 24bd
000002a0: 4e9c 28bd 266d f7bd 1f84 253d d24b d6bd
000002b0: 4c07 863d 547c a13d 1c1c cc3d 8ed8 cbbc
000002c0: 7760 b1bd e64a c23c a7b7 6e3d 20f8 d6bd
000002d0: 143c c8bc 6fef 80bd 210d 20bc 54e0 5abd
000002e0: ddc9 30bd 802a 0cbd a73b d8bd d2f4 aa3d
000002f0: 4db6 b33d a4a4 92bc 9c73 4fbc fef1 32bd
00000300: f47b c9bd 3298 d3bd 7c0e 1d3d d4ac 7dbd
00000310: 5ac9 90bd bd54 2dbc 043c 11bd da04 0fbd
00000320: 9ad4 da3a a89d b9bc e314 19bd a20c 50bd
00000330: f335 afbd f781 b63d ad3f 2cbd 9729 d83c
00000340: a4d5 1dbd e20d d13b e580 c43d 5224 3c3d
00000350: 1db7 bdbd 81b9 283d 2f45 c83d 8299 d53c
00000360: 4b6f 8d3d 004b d33d b5b5 85bc f9d3 9d3c
00000370: b62a 98bd a48b b5bc bbc7 9a3d 64c7 543d
00000380: 15a9 8bbd f21b adbd 3286 93bd c30d d5bd
00000390: 7b94 a6bd 3eae d5bc 71ba 913d fe58 903c
000003a0: e016 a4bd b42e adbd bc27 563d f401 a2bd
000003b0: 2c2f 5abc 32ef 4c3d 99d9 4bbd d19d 3cbc
000003c0: aadc 0cbc 7586 cebc 1c1a 5bbd b9f4 c0bd
000003d0: e080 aebd 342f 67bd f99f cd3d 38b2 52bd
000003e0: 372a 91bd cc3f c53c 86d1 e63c ea84 6d3d
000003f0: d83d 9f3d b98f 6d3d 3713 d6bd f081 c73b
0.106728196 0.1116917 -0.10695794 -0.14727664 -0.16068259 -0.42573887 -0.20906594 -0.22424278
-0.34733677 -0.026311085 0.08165434 -0.07234532 -0.18683372 -0.24916339 -0.31228143 -0.099013336
-0.11630951 -0.3573245 0.030661061 -0.0105555095 0.051541273 0.19457294 0.22551773 0.1185056
-0.01181353 0.03977475 0.09553454 -0.1496864 -0.04871378 -0.1258118 0.06136458 -0.036955994
-0.077703685 0.16100954 -0.0017140625 0.112763084 -0.11789681 -0.12263321 0.0052348687 -0.13623515
-0.042253546 -0.17140426 0.13816819 -0.096930556 -0.090012155 0.02268085 0.05456687 0.08490078
0.09600004 -0.083420776 0.027428139 -0.045357175 -0.012085622 -0.07662895 0.23861594 -0.0069566644
0.13376254 0.09940422 0.0287226 0.036615226 0.01845575 0.010720859 0.08096963 -0.09454666
0.04772737 -0.014475488 -0.049011946 0.087189235 0.018121153 -0.0709236 -0.0742291 -0.012843936
-0.00055332726 -0.053768724 -0.06762074 -0.11214466 -0.09054266 0.03140106 0.1731517 -0.11138858
-0.018028915 0.054445073 0.0191201 -0.037538394 0.05501732 0.055393953 0.03941678 -0.018522663
-0.027912505 0.01127678 -0.087928526 -0.17071688 -0.081068 0.03781 -0.033834737 0.084151
0.0039173956 0.108470075 0.17928246 -0.08451517 -0.22396955 -0.08970689 0.10334739 0.040671717
0.08905539 -0.01251642 -0.058212537 0.03926358 -0.008133529 0.049313784 0.07422195 0.05838883
-0.09136006 -0.086884044 -0.015632609 0.067494385 -0.036705505 0.08650874 0.18015927 0.06280392
0.025787994 0.12418987 -0.01116161 0.012635047 -0.008869988 0.016405145 0.013588553 -0.032863915
-0.17053768 -0.12221564 -0.14134753 0.041040882 0.08980009 0.11474944 0.14244564 0.027286075
-0.0007009246 -0.08004819 -0.089940615 -0.09903844 0.044762667 -0.05120081 -0.021399533 -0.061005242
-0.023382952 -0.07626357 -0.09301231 0.033305787 -0.027956555 0.05023607 -0.03869767 -0.09246558
-0.024924997 -0.027197687 -0.0022263613 -0.12272442 0.009380155 -0.123807475 0.059113648 0.05551999
0.07004349 -0.10445861 0.07501363 0.02572387 0.07536777 0.17592628 -0.044141557 -0.04009676
-0.04116469 -0.12081365 0.040409204 -0.1046368 0.065443605 0.07885042 0.09966299 -0.024883535
-0.08660977 0.023717355 0.058280613 -0.10496545 -0.02444271 -0.06295668 -0.009768755 -0.053436592
-0.04316126 -0.03422022 -0.10558253 0.08347477 0.087750055 -0.017900772 -0.012661841 -0.043687813
-0.09838095 -0.10331763 0.03834389 -0.0619324 -0.07069655 -0.010579285 -0.035457626 -0.034916736
0.001669544 -0.022658184 -0.037373435 -0.050793298 -0.08555212 0.089115076 -0.042052913 0.02638702
-0.03853382 0.006379829 0.09594897 0.045933075 -0.09263442 0.041192535 0.09778821 0.026074175
0.06905993 0.103170395 -0.016321996 0.019266116 -0.074300215 -0.022161312 0.07557627 0.051947966
-0.06819359 -0.08452596 -0.0720333 -0.104030155 -0.08133789 -0.026084062 0.07115639 0.01762056
-0.080121756 -0.084561735 0.052283987 -0.07910529 -0.013316911 0.050032802 -0.049768064 -0.011512236
-0.008597532 -0.025210598 -0.053491697 -0.09421677 -0.08520675 -0.0564415 0.10040278 -0.051439494
-0.0708813 0.024078272 0.02817608 0.057988085 0.07775468 0.057998393 -0.10452884 0.006088488

conv_block_1.2.bias f4 [10]
00000000: 90ce af3e 8c60 843d 289e 79bd a502 c33e
00000010: 856e 5fbc d3a3 d9ba 112a db3d 7ea1 d73e
00000020: 11cd a53e 1daa a93d
0.34337282 0.06463727 -0.060941845 0.38087955 -0.01363719 -0.001660461 0.10701383 0.42115396
0.32383016 0.082844

conv_block_2.0.weight f4 [10, 10, 3, 3]
00000000: 47bd dd3c 26b6 a2bd eaff 3bbd 8149 50bc
00000010: 10ee 663b 1c7b 5b3d bae5 b0bd 8ee3 043d
00000020: 9242 4c3d 00c4 743d 3776 d2bd 0580 29bd
00000030: 1b97 9fbd dc42 88bd 419e 8e3d 292c a4bc
00000040: 5ad6 1f3d b78e 83bd e163 843c 4c9d 82bd
00000050: bfc2 573d 7be2 3cbd 1d71 d8bc f24c bbbd
00000060: ffa4 d039 1217 cd3d 62a9 513d 7aa3 89bd
00000070: 0445 cebc c4fd 4ebd 8e51 48bd 7008 943d
00000080: 1f15 cfbc 0729 143d b13f 95bd 9f15 83bd
00000090: 46e6 a33c 63b6 353d 6733 b63c db0f 3cbd
000000a0: 61b0 d13d 1298 a1bc 3495 92bd ac16 51bd
000000b0: bbdb cb3d 7fce 5637 e5f9 8ebc bf55 73bd
000000c0: 8a92 71bc 8165 d0bd ed2c eabd a388 423d
000000d0: ddb5 a53d ab22 a03d a6c3 53bd 685f a13d
000000e0: 5d60 91bd d439 053e 665f 9d3d deb5 ae3d
000000f0: 2429 293e 8034 853d 2122 83bc 30cb 533d
00000100: e251 03bd 1a68 bd3c 1b19 24bb f630 3339
00000110: 420c bdbd b773 093c bb13 95bd 4b84 11bd
00000120: 4148 54bd 1abc afbd 583e fa3b 5898 f23d
00000130: 0043 bf3d 003e 7c3d bec3 62bc b177 f1bd
00000140: 8412 be3c 282b 6a3d a489 b5bd 8058 203d
00000150: a955 9c3d 1170 af3b b5cc 91bd 0e4d 9d3d
00000160: 69a7 443d b8a8 883d 1682 77bd 0be4 3fbe
00000170: ec79 01bf 5af2 35bd a7c2 30be 8e8e 2bbd
00000180: d744 033d e2f1 8b3e aca9 ea3d f04f 3d3e
00000190: d3ae 813d aa93 b4bd 21fe a2bd 67e6 49bd
000001a0: f4a3 1abe 4490 233d 63c9 a9bb 391a 893d
000001b0: 10af 813d daff 183d 32c9 5abd 95c4 b0bd
000001c0: c4af 703b db68 7cbd 6c5a b13d c367 cfbd
000001d0: 61ca 423d fa20 a43d a066 5c3e 7602 5c3d
000001e0: 732b 203d 9249 273f 04da 89bd 1806 203d
000001f0: d67f 22bd 3053 5bbf 40f3 9b3c f5f0 953d
00000200: 0f17 cdbd 474a 87bd e2bf 143e 87c3 65bd
00000210: a99b 8e3d 559a a8bc 2605 89bd d815 1abd
00000220: 5069 d1bd e9e8 a6be 6a90 c13d 7137 033f
00000230: 2cf1 743d d88d 923e 69d7 303d 505b 96be
00000240: f433 8abe 425f b2bd 288f f13d 0ca0 023c
00000250: f8cd 923e 1bcf 1fbe d84b cf3e 9e7c 683e
00000260: 9c8b d0be 2515 ccbd 8d60 df3c a940 713e
00000270: 5f41 f5bd 3424 a03e 64e6 c4bd 16a3 5f3d
00000280: 9258 2dbd cb7b b1be 4cc4 4abe 352e 68bc
00000290: b5c2 473e 6410 073c cdd0 113f 7d8f 18bd
000002a0: aa67 ad3e f966 643d 30d0 12bf 08a8 5abd
000002b0: 7e46 29be 7126 37bd 0a42 dfbd 887c 7bbe
000002c0: 3790 ab3d 2e1a 14be a6e1 303d a5ac 773e
000002d0: 197a 85bd c61d 073d 9cf0 323d 97ef 32bc
000002e0: 6441 e9bd 2648 0fbe 5f16 17bd 9e3e 0dbd
000002f0: b599 153d 6a21 0cbd 547b 66bd 3972 2ebd
00000300: d069 53bd 5d16 c63d 382b 0fbd 92ee b4bd
00000310: 4827 d93c 635d 70bc aa6a a53d f5fa 863d
00000320: 0274 c63d eb0b 9ebd 4fc9 8a3d d647 b53d
00000330: bb09 55bd 516e c63d 07d5 a13d 2e6f 953d
00000340: 28d2 c43d 19b5 ac3b 3a5c 3fbe 80ac e83c
00000350: 3b25 513d fa9b 89be 1b02 04be 45d2 a8be
00000360: c5e7 a03d c640 c03d 318f 053d 50dd a6bd
00000370: 135b 613d 085f 6f3c 2d2f 293b 1ef4 bb3c
00000380: e621 3c3d a259 ae3b f0bd 29bd f9c1 973d
00000390: a251 4c3c c7cd 313d e125 05be 4107 b0bd
000003a0: 3792 40bd c8d5 0cbe b8cc 343e 508c 0a3e
000003b0: 7b59 963c 52da 0dbd e468 b13c e6b3 e03d
000003c0: 2315 e6bd 9122 0abe 5e0e dfbd 6b67 963d
000003d0: 75ec 013d 2dda a93d dda4 67bd 1d34 1b3e
000003e0: 64d7 d33d fb3a 41be 6bc0 c9bc 6b5b cfbc
000003f0: 5100 b03b dd7a e6bb 8d19 3b3e 4750 553d
0.027067794 -0.07944898 -0.045898356 -0.012712837 0.003523711 0.053584203 -0.08637567 0.032443576
0.049868174 0.059757233 -0.10276454 -0.041381855 -0.07792493 -0.066533774 0.06963778 -0.020040588
0.03902278 -0.06423705 0.016160907 -0.06377658 0.05267596 -0.046114426 -0.026421124 -0.091455355
0.00039795783 0.10014166 0.051186927 -0.06720634 -0.025179394 -0.05053498 -0.0489059 0.07228172
-0.025278626 0.03617194 -0.07287539 -0.06400608 0.020007264 0.04436339 0.022241307 -0.04591356
0.1023872 -0.019725833 -0.071573645 -0.051047012 0.0995402 1.2803473e-05 -0.017453143 -0.059407946
-0.01474441 -0.1017561 -0.1143435 0.04749359 0.08091328 0.078191124 -0.051700257 0.078795254
-0.07098458 0.13010341 0.076842114 0.08530782 0.165196 0.06504154 -0.016007485 0.051707447
-0.03206051 0.023120929 -0.0025039378 0.0001708901 -0.092308536 0.008389405 -0.07279154 -0.035526555
-0.05182672 -0.085807994 0.0076368265 0.118454635 0.09338951 0.061582565 -0.013840614 -0.117904074
0.023202188 0.057170063 -0.088641435 0.0391469 0.07633526 0.0053539355 -0.07119123 0.07680713
0.048011217 0.066728055 -0.060426794 -0.18739335 -0.50576663 -0.044420578 -0.17261754 -0.041883998
0.032048073 0.2733298 0.114581436 0.18487525 0.06332173 -0.08817227 -0.079586275 -0.049291994
-0.15101606 0.039932504 -0.005181478 0.06694455 0.06332219 0.037353374 -0.05341453 -0.08631245
0.0036725858 -0.061623435 0.08659825 -0.10127213 0.047556285 0.08014102 0.21523523 0.053713284
0.039103936 0.65346634 -0.06731036 0.03906831 -0.039672695 -0.8567381 0.01903689 0.073213495
-0.10014164 -0.06605964 0.14526322 -0.056094673 0.069632836 -0.020581404 -0.06690435 -0.037618488
-0.10225165 -0.3259957 0.09451373 0.5125647 0.059800312 0.28623843 0.04317418 -0.2936654
-0.26992762 -0.08709575 0.11794883 0.007972728 0.28672767 -0.15606348 0.40487552 0.22703788
-0.40731514 -0.099649705 0.027267719 0.23559822 -0.11975359 0.3127762 -0.09614256 0.05459889
-0.042320795 -0.3466476 -0.19801444 -0.014171173 0.19507869 0.008243654 0.5695923 -0.037246216
0.33868152 0.055762265 -0.5734892 -0.053382903 -0.16530797 -0.044714395 -0.10901268 -0.24559224
0.08377116 -0.14463112 0.043183945 0.24186952 -0.06517429 0.03298738 0.043686494 -0.0109213805
-0.113894254 -0.13992366 -0.03688657 -0.034483545 0.03652354 -0.034211554 -0.05626996 -0.0425894
-0.051614583 0.09672234 -0.034953326 -0.08834566 0.026507989 -0.014670703 0.08076985 0.06590835
0.096900955 -0.07717117 0.06776678 0.08851592 -0.052011233 0.0968901 0.0790196 0.072965965
0.096103966 0.005270612 -0.18687525 0.028402567 0.051060896 -0.26876813 -0.12891428 -0.32972923
0.078567065 0.093873546 0.03260726 -0.08147681 0.055018496 0.01461006 0.0025815472 0.022943553
0.045930766 0.0053207437 -0.041440904 0.07410044 0.012470635 0.043409135 -0.13002731 -0.085951336
-0.04701444 -0.13753426 0.17656219 0.13530087 0.018353214 -0.034632035 0.021656461 0.10971813
-0.112345 -0.13489749 -0.10891412 0.07343944 0.031719644 0.08293567 -0.05655371 0.15156598
0.10343817 -0.18870156 -0.024627885 -0.025312146 0.0053711315 -0.0070336894 0.18271466 0.05207851

conv_block_2.0.bias f4 [10]
00000000: cb75 dabd e570 0fbd 7cb8 723b c1cf f7bd
00000010: 4136 cabc d530 503e 1bbc c2bb 0469 593e
00000020: 4a97 043f a6f4 27bd
-0.106669985 -0.035019774 0.003703623 -0.12100173 -0.024684073 0.20331128 -0.005942834 0.21231467
0.5179335 -0.0410048

conv_block_2.2.weight f4 [10, 10, 3, 3]
00000000: 7b8e 9ebd c48f 9cbd fe78 aabc 55a1 0cbd
00000010: 4d73 aa3d 2626 6d3b 223b fb3c 0e2a 06bd
00000020: c329 9b3d 72be aabe b0e7 93bd 19c8 b4bd
00000030: 77bc 8abe fbd6 1e3e d776 d0be d7dd 54be
00000040: 14ac 0b3f f7ca b0be a98e 4d3d fef3 10bd
00000050: a5dd ac3c 608e 6dbd c401 5f3d 231a 18bd
00000060: c8bc 483c 0fac 5c3d 0b0a afbd 5e99 9abe
00000070: 1ecc 813e 4854 04be 0f2b 17be f82d 1c3e
00000080: 32cd 91be 49d7 693c 3053 ed3c b6a2 883c
00000090: b1fb cf3d c275 29be ce66 21be 3af7 bd3d
000000a0: 1311 0dbe 3167 92be 16cd a3bd b564 a6bd
000000b0: 3791 bebe ac3a ab39 b64f 9fbc 74c1 013e
000000c0: 12d3 cf3c 2277 d33c 79e6 6d3d a726 c13c
000000d0: 95bf 91bd e2e6 b3bd 535b ebbc 5bd3 073d
000000e0: 92e3 a1bd 619b a8bc 70f6 843d 5339 0a3e
000000f0: f2cc 663d 0ccd fa3c 9460 a33d 909d b6be
00000100: e5ed 423e 6c56 9fbe e2f6 a5bc 6976 853e
00000110: e61b f5be 7291 7a3e e008 7c3e dae7 55be
00000120: 35db b53e b95a 72bd 8421 3abd f452 68be
00000130: b712 d9be 7534 9b3d 43e8 82be 9787 d6bd
00000140: 5218 183d 2304 f9bc 995c 453d 9e13 34bd
00000150: e5e7 0a3d 7e4e 75bd 3bce 2ebc 24c8 503d
00000160: fc4e 16bb 625e 23bd 2540 f13c b55e 93bc
00000170: fafe 5dbd 570f bebd 9eff a8bc 71be ccbd
00000180: a302 cf3d 91c7 29bd a0cb 02bd 63c0 4ebe
00000190: a73c 74bc be31 463e 1707 483e b8c9 343c
000001a0: fb4d 10bd 00a9 c43e 9521 9abe 2479 5ebd
000001b0: 17fa 433c 02b2 c6ba 924b 523d 0c5c 2f3d
000001c0: 4e41 7abd 5758 06bd 22b4 d9bd 6502 3fbe
000001d0: 0512 debd a00d 4ebd 4f04 17be 32a4 dc3d
000001e0: 1a15 20bd 24f7 82be 1b63 de3d eaf4 9abd
000001f0: ad23 3cbe 6c39 c83e 71d9 edbd b43c 2fbe
00000200: 9f34 9e3c d234 a6bd 248a 87be 5ac6 bebc
00000210: f126 d53d 69da 87be a3f0 c7bd 5884 923c
00000220: ba70 4e3d b8a7 713d 6861 78bd 2669 cfbd
00000230: d457 28bb 01fb 4e3b 6a21 363d f72c f5bc
00000240: 969f a93d 8c11 d53b 547b 913d 4b9e a4bd
00000250: ce8f ec3c ac54 843b d1a2 76bd 244e 133d
00000260: 4da4 07be 5af8 873e 76d3 7bbd 61e4 ecbd
00000270: 4c14 903d 41f4 fcbe 66e5 6b3c 6194 463e
00000280: ca26 0dbf 2f4f c73e 16a4 83be 3bc7 95be
00000290: e6fc c5be ec97 5dbe ecf5 16be 6d38 3dbe
000002a0: a5b2 a53b fad1 d83e b239 07be 6f55 d7bb
000002b0: 4597 2f3d 2bb2 c43d 408f 67bd 6525 4abd
000002c0: a77b 843d 99af 753b 2ef0 edbb 72f3 dabd
000002d0: 80ed b53d 9396 03ba 93ad bebb 84a6 40bd
000002e0: 0415 d7bc fcff 3c3d 16c2 95bb 4ba9 a23d
000002f0: 3b0d 1abc 01f3 4cbe 8218 9dbe c971 89bd
00000300: 25f1 aabe b501 1dbe 7751 ad3d cb7c 17be
00000310: 9969 6a3e b01d a43d 57db 05bd 50f8 2e3c
00000320: 3de1 d9bc 0e1c 843c 4f11 a43d cf43 633d
00000330: a508 8f3d 0560 06bc f453 983d a70b 44be
00000340: bd3f 6f3e 50e8 a7bd 301d 423e 5034 9abb
00000350: 930f 74be ea3b 0ebe f66c 8cbd 04cd 68bd
00000360: 8b6d 7e3d 9991 cdbd e0f2 56be d703 28bd
00000370: 3c17 973d fe52 3bbe 370a b63d 6113 563d
00000380: bdf9 a73c 4d43 ad3d 6432 faba 6e2d efbd
00000390: cb96 9e3d ffe9 3f3c 4a60 3fbb ef1c bcbd
000003a0: 3ee4 aebc 71c8 62bd 0bcf 743d 520c 4a3d
000003b0: 727d 6d3d 9def 303d 667d b7bd 9635 94bd
000003c0: 338e 97bd 631c 8cbd 36de 5b3d 8230 2c3e
000003d0: 6ae4 053f 37cd 6abe 810b f6be 7b82 483e
000003e0: 10f7 da3d 98fb 2dbe 263f 08be 4454 97be
000003f0: 7adc 84bd 319e 81be 5209 b7bd a307 16be
-0.0774202 -0.076446086 -0.020809647 -0.034333546 0.08322773 0.0036186068 0.030667845 -0.03275495
0.07576325 -0.33348423 -0.07221925 -0.08827228 -0.27096912 0.15511696 -0.40715668 -0.2078775
0.54559445 -0.3452985 0.05018488 -0.03538894 0.021101782 -0.057997108 0.054445043 -0.0371343
0.01225204 0.053875025 -0.085468374 -0.30195135 0.25351042 -0.12922776 -0.1476252 0.1525191
-0.28476864 0.014272519 0.028970331 0.01667915 0.10155428 -0.16548827 -0.15761873 0.0927567
-0.13776045 -0.28594354 -0.079981014 -0.08124677 -0.37220165 0.00032659376 -0.019447189 0.12671453
0.0253692 0.025813643 0.058081124 0.023578001 -0.071166195 -0.08784272 -0.02873007 0.03316055
-0.07904734 -0.020581903 0.06492317 0.1349843 0.056347795 0.030615352 0.07977405 -0.35667086
0.19036062 -0.31120622 -0.020259324 0.26066902 -0.47872847 0.24469545 0.2461276 -0.20889226
0.35518804 -0.05916855 -0.04544212 -0.22687894 -0.4239709 0.07578365 -0.25567827 -0.104750805
0.03713257 -0.03039748 0.04818401 -0.04396402 0.033912558 -0.05988931 -0.010669286 0.05097212
-0.0022935262 -0.039884932 0.029449532 -0.017989496 -0.054198243 -0.092802696 -0.0206297 -0.09997261
0.10107925 -0.041450087 -0.031932473 -0.20190577 -0.014907039 0.19354913 0.19533955 0.011034422
-0.035230618 0.38410187 -0.30103746 -0.054314747 0.0119614815 -0.0015159252 0.0513416 0.042812392
-0.061097436 -0.03279909 -0.10630061 -0.18653257 -0.10843281 -0.050305963 -0.14747737 0.10773505
-0.039082624 -0.25579178 0.108587466 -0.07566245 -0.18372984 0.3910631 -0.11613739 -0.17113
0.019312201 -0.081155434 -0.2647258 -0.02328794 0.10407818 -0.2653382 -0.09762695 0.017885372
0.050400473 0.05899784 -0.06063977 -0.10127477 -0.0025687115 0.0031582715 0.04446546 -0.029928667
0.08282392 0.006502336 0.07103601 -0.080380045 0.028877165 0.004038414 -0.060213868 0.035963193
-0.1324627 0.26556665 -0.06148096 -0.11566997 0.07035121 -0.494051 0.014397955 0.1939254
-0.5513731 0.389276 -0.25711125 -0.29253563 -0.3866951 -0.21639985 -0.14742249 -0.18478556
0.0050566965 0.423477 -0.13205603 -0.006571464 0.04286887 0.09604295 -0.0565331 -0.04935207
0.06468897 0.0037488698 -0.0072612977 -0.10690965 0.0888319 -0.0005019691 -0.0058190315 -0.0470338
-0.026255138 0.046142563 -0.004570256 0.07942446 -0.009402568 -0.20014574 -0.3068276 -0.06711156
-0.33387104 -0.15332682 0.08462804 -0.14793698 0.22891845 0.08013475 -0.032679882 0.0106793195
-0.02659666 0.016126659 0.08011114 0.05548459 0.06984071 -0.008201604 0.07437888 -0.1914507
0.23364158 -0.08198607 0.18956447 -0.004705943 -0.23834066 -0.13890043 -0.0685672 -0.056836143
0.062116187 -0.10037536 -0.20991087 -0.041019287 0.073774785 -0.18293378 0.08888667 0.052264575
0.020504827 0.08460102 -0.0019088504 -0.11678587 0.07743605 0.011713504 -0.002920168 -0.09185206
-0.021349069 -0.055366937 0.059767764 0.049328156 0.057980962 0.043197263 -0.08959465 -0.07236783
-0.07400169 -0.06841352 0.053678714 0.1681538 0.5230166 -0.22929846 -0.48055652 0.19581024
0.10691655 -0.16990507 -0.13305339 -0.29556477 -0.06487365 -0.25316003 -0.089373246 -0.1465135

conv_block_2.2.bias f4 [10]
00000000: 1704 033f 45bf 1f3c 54c1 fd3d 5386 3ebd
00000010: c8ea bebd ce93 56bb 21bc 053e 4173 4cbc
00000020: 6c91 4c3e 0e49 b1bd
0.51178116 0.009750192 0.1239039 -0.04651482 -0.09322125 -0.0032741907 0.13060047 -0.012478651
0.19977349 -0.08656512

classifier.1.weight f4 [10, 490]
00000000: d7b4 ca3c 63e7 8a3d 279d fc3d faa2 e1bd
00000010: b0c1 2fbc 7d9e 523e 3b4d 7d3e b5be 1cbc
00000020: cc79 6c3d 2cc0 953d d6e0 aabc 2e2f e93d
00000030: 1b29 a03d 94e1 33bd 8f57 91bd 307e 213d
00000040: 1474 83bd 23fa f3bd cab0 c83c d795 c0bd
00000050: 0b72 4ebe 6a8d 7dbd 6514 183e 865d d43d
00000060: ea70 babd 8f5b 883d 9f05 b5bd 1065 6abe
00000070: 60ea efbd b3f4 6bbc edf7 e93d 4c7d 75bd
00000080: f4e0 4d3d 9e6f 9cbb 2c90 74be 0af7 8dba
00000090: 7238 e7bd 7894 2d3c c561 51bd 857e 8fbd
000000a0: e94a 393d d137 e93c 8839 643d c17e 103d
000000b0: 14fc c73d cd43 ce3a 436b 703c d584 a73c
000000c0: fdd8 f63d 721a c73d 23b7 b8bd a20b 21be
000000d0: 60ed b73d d23f a13d 4057 68bd 6354 823d
000000e0: c4dc 0b3e 2f6b 88be 0e0b e83c be95 073e
000000f0: 77ca 013c aba7 af3d d5da dfbd 5f0a 5a3d
00000100: bcf6 6b3e 4cf1 003c 6786 ad3d a2b0 61bd
00000110: 9a8a 803e da5f 023e e5c1 123d 251d 953d
00000120: 76ea 4b3d 0903 e3bc 591c fbbc f61f b53d
00000130: 2ce8 23bd 3d40 983d 2c84 933d 68a8 10bd
00000140: 0d64 0fbd 2c68 013d 8ed7 8d3d d2d8 c2bc
00000150: b193 06be db23 5abd a39a 42be 4549 6fbe
00000160: c80b 1fbd 0e14 dbbd aecf 603d 639f 06bc
00000170: 9ec9 23bd e1d4 7f3e 76d8 96bd 78ff be3d
00000180: be9d d4bc 42ee 8c3b 3f19 2b3d 47f0 c9bc
00000190: 71fb 963e de00 153d 451c e6bb 2e04 b23d
000001a0: 944c 813b 7389 9c3d 815a 243e 7053 683d
000001b0: e886 073d 1d15 fcbd 02b6 693d 8398 e33d
000001c0: 121f 9e3d 0ee1 693d 6269 2e3e 5daf 88bc
000001d0: 47f5 263e 58f1 e5bc 619d f53c 5d45 2c3d
000001e0: 0e33 50bc e583 c6bb 78c6 a2bc 51e0 07bd
000001f0: 50fc 92bd 2440 f43c d5e5 09be 9b10 4abd
00000200: 54fe 16bc cd31 4fbd a5b2 1e3d be52 3ebe
00000210: 1930 b6bb 63c0 e0bc 0b81 89bd b40f 5dbd
00000220: 054b ebbc 2624 df3d 83db 19be 6ad4 d9bc
00000230: eb83 1bbd e7f5 babd e95b 1dbd bd23 ed3c
00000240: e1a5 b73d 046a b23c 1e7b 753a c9ca 7f3e
00000250: 902c 883c 32d2 88be 6692 d2bd ecf1 d73d
00000260: 2142 443d c51a d93d 4564 c53d bf56 2fbe
00000270: d8db 85be 44f4 10be fd98 e7bd 86d8 71bd
00000280: 7bde fabc dafb 263e 7910 903d 33af 09be
00000290: 5a93 92bd f4d9 b3bc 7525 c2bc 9915 a2bd
000002a0: 9714 733d c938 123e c1c8 533d 81ac 8abd
000002b0: 1f8c dc3d 2201 133e 9406 e73d 04c2 273d
000002c0: 5145 e93c b51b 0cbd c297 e2bd 7574 ba3c
000002d0: 108b 073d 13a2 8e3d c4b7 cabd b51c 6b3e
000002e0: 344f 55bd a2f1 54be 04d3 26be cb0a 15be
000002f0: 1fd2 bc3d d58b eabd 1efa d73d 5b88 23be
00000300: 52a7 f9bd 834b a8bd a163 39be 693d b73d
00000310: b80d 683c f41a 8a3c be16 623e 7353 fb3d
00000320: d8e4 0a3d 4510 09bd 57ef 87bd 20ef 46bd
00000330: 1b89 403d 5501 0a3e 62ac 1e3e cbae 473e
00000340: e645 163e 925b a53d d928 6a3d 5279 1fbd
00000350: bf69 af3c deea a93d c497 a5bd 0ff2 193d
00000360: d6b6 0c3e 7991 203d c254 203b 6191 d3bd
00000370: 7d58 843d 7751 29be 5bbb 35be 15be debd
00000380: 103d 933b 67b2 a13c da72 80bd eb1f 2abd
00000390: 2cb0 12bd 6993 13be 0b11 dfbd 7f89 c73c
000003a0: 1d2a 52bd d8f5 8bbc b597 0abe 55ab 2f3e
000003b0: 1bec f0bd 8c15 3d3c 9a61 a73c 040e 1f3e
000003c0: f26a 5c3c bc25 023e e626 d03d 97ec 443b
000003d0: 60db 13bd cc4f 02bd 1daf 743c 47de 803c
000003e0: f1b9 c7bc 2068 67bc 6d11 883c ed19 5d3c
000003f0: b608 903c 84d4 bbbb e550 d5bc 7696 35bc
0.024744434 0.06782415 0.12334662 -0.110174134 -0.010727331 0.20568271 0.24736492 -0.0095669525
0.057733342 0.073120445 -0.020859163 0.11385952 0.0782034 -0.0439163 -0.070967786 0.039426982
-0.064186245 -0.11912944 0.024498362 -0.0940358 -0.20160691 -0.06190244 0.1485153 0.10369401
-0.09103568 0.066580884 -0.08838963 -0.22890115 -0.11714625 -0.014401603 0.11424241 -0.059933946
0.05026336 -0.004774048 -0.23883122 -0.001083107 -0.11290063 0.01059448 -0.05111863 -0.070065536
0.045237456 0.028468998 0.05571893 0.035277132 0.09764877 0.0015736759 0.014674011 0.020449081
0.12053106 0.09721841 -0.090193056 -0.15727094 0.089808226 0.07873501 -0.056723833 0.06363752
0.13658434 -0.26644275 0.028325584 0.13240716 0.007921807 0.08576902 -0.10930411 0.053232547
0.2304334 0.00787003 0.08472901 -0.05510009 0.25105745 0.12731877 0.035829443 0.072809495
0.049784146 -0.027711408 -0.030653166 0.08843987 -0.04001634 0.074341275 0.07202944 -0.035316855
-0.035007525 0.031593487 0.069258794 -0.023785029 -0.13142277 -0.05325685 -0.19004302 -0.23367794
-0.038829595 -0.106971845 0.05488556 -0.008216712 -0.0399872 0.2498355 -0.073655054 0.093260705
-0.025954124 0.0043008635 0.041772123 -0.024650706 0.2948871 0.03637778 -0.007022413 0.086922035
0.0039458964 0.07643404 0.1605015 0.056720197 0.03308764 -0.123087145 0.05705834 0.11113074
0.0772077 0.057099395 0.17032388 -0.016685182 0.16304503 -0.028069183 0.02998227 0.042058337
-0.012707485 -0.0060582035 -0.019870028 -0.03317291 -0.07177031 0.02981574 -0.1346658 -0.049332242
-0.00921591 -0.050584603 0.038744587 -0.18586251 -0.005559933 -0.027435487 -0.06714066 -0.053970054
-0.028722296 0.10895567 -0.15025143 -0.026590545 -0.037967604 -0.091289334 -0.03841773 0.028947705
0.08967186 0.021779068 0.0009364354 0.249797 0.016622812 -0.26722866 -0.102818295 0.1054419
0.047914628 0.10600809 0.096382655 -0.17122935 -0.2614429 -0.1415568 -0.11308477 -0.059044383
-0.030623665 0.16307011 0.07034392 -0.1344574 -0.07157011 -0.021954514 -0.023699502 -0.07914276
0.059345808 0.14279474 0.051705126 -0.06771184 0.107689135 0.14355901 0.112805516 0.040956512
0.028475435 -0.03420611 -0.11064102 0.02276061 0.033091605 0.06964507 -0.09898332 0.2296017
-0.052077487 -0.207953 -0.16291434 -0.14554898 0.09219765 -0.11452452 0.10545753 -0.15969984
-0.12190117 -0.08217528 -0.18104412 0.0894726 0.014163427 0.016858555 0.22078988 0.12271776
0.03390965 -0.03346278 -0.06637447 -0.04856789 0.047005754 0.1347707 0.15495446 0.19500272
0.14675102 0.08074106 0.05716786 -0.03893406 0.021412728 0.082967505 -0.080855876 0.03758436
0.13741621 0.039201234 0.0024464582 -0.10330463 0.0646219 -0.16534983 -0.17747252 -0.10876099
0.004493363 0.01973839 -0.06271906 -0.041534346 -0.03581254 -0.14411701 -0.108919226 0.024357555
-0.051309694 -0.017085 -0.13534434 0.17155202 -0.117637835 0.011540782 0.020432282 0.1553269
0.013453232 0.12709707 0.10163669 0.0030048245 -0.036097884 -0.03181438 0.014934328 0.01573099
-0.024380656 -0.014123946 0.016609872 0.013494951 0.017582279 -0.005732121 -0.02603955 -0.011083236

classifier.1.bias f4 [10]
00000000: 5603 0e3e 2986 38be 4d2c c03e f578 d23b
00000010: aba6 d0be d1cd 01be e0d0 063e 4e37 7fbb
00000020: e569 343e 7f41 16be
0.1386846 -0.18019928 0.375338 0.0064231106 -0.40752158 -0.12676169 0.13165617 -0.0038942876
0.1761852 -0.14673422
