05_going_modular/models/05_going_modular_cell_mode_tinyvgg_model.pth (torch, 36691 bytes, 10 tensors)

conv_block_1.0.weight f4 [10, 3, 3, 3]
0.14530233 0.15797797 -0.04761638 0.17406254 -0.044361617 0.036728308 -0.096714586 0.10980229
0.16579208 -0.17505972 0.1356038 0.0022735184 0.10732687 -0.004912573 0.061877724 -0.0641037
0.112141296 -0.008038863 -0.090522565 0.0521815 -0.088160984 -0.025831591 -0.075596474 0.13007349
-0.1598903 -0.09574716 -0.061587412 -0.050920278 0.08283354 -0.12511323 0.23642093 -0.099983715
0.2134443 0.092900515 -0.0012448723 0.18142904 0.048432235 0.17270921 0.03798814 -0.046561614
0.06462482 -0.0375788 0.09164448 0.18219107 0.12395599 -0.025640398 0.16672204 0.08944572
0.15067337 -0.06782202 -0.13918917 -0.02705482 -0.10191369 0.20616889 0.0058587543 0.030027982
0.0093835415 -0.05299127 0.1012678 -0.18612012 -0.038023904 -0.18125479 0.010657459 -0.09095224
0.03635086 -0.06548217 0.13306081 -0.1399729 -0.14095712 -0.1430396 0.14504038 0.03660428
0.14220525 -0.19810563 -0.23387365 -0.19500484 -0.17150988 0.03499994 0.022978947 0.11614821
-0.14360176 -0.15632185 0.07464595 -0.10717882 0.09381737 -0.0697895 0.08358063 -0.17119233
-0.11954844 0.03385256 0.06930137 -0.022259906 0.13568127 0.16380937 -0.1050923 -0.0740584
0.20964958 -0.03074998 -0.038959403 -0.19516806 -0.118990704 0.026543727 -0.028786074 -0.13832465
-0.0033009583 -0.13107787 -0.15876846 -0.108917564 -0.15582766 -0.11160916 0.1882167 0.04646201
0.06791953 -0.18071374 -0.12072784 -0.058015037 0.030243864 -0.13822833 -0.056960925 -0.10962468
0.029641408 -0.04875103 -0.004687747 -0.10632104 -0.11024722 -0.09902767 -0.07046986 -0.16476385
0.13151895 -0.04319703 0.15142915 0.033565916 -0.16630939 0.12412845 -0.068759374 -0.09163363
-0.17859231 -0.22851585 0.050543264 -0.048072364 0.046685386 -0.18650167 0.109315895 -0.1836745
-0.03726989 0.039331138 0.081868745 0.16576019 0.18744233 -0.16066441 0.03013055 -0.09704044
-0.042159896 -0.14440025 0.17748979 -0.16365726 0.1292587 0.08797166 0.042490143 -0.11274674
0.16620061 0.014089974 0.010016826 -0.18435594 0.06590398 -0.039826825 -0.100909695 0.14771757
0.031570084 -0.12181934 -0.12101438 -0.0316544 0.08565736 -0.0692959 -0.12267814 -0.08133662
-0.1619881 0.05719945 0.13450056 -0.19948962 0.023458097 0.0780755 0.014371403 -0.08426032
0.08280623 0.08067541 0.056739263 -0.051068068 -0.070854105 -0.009317911 -0.059889495 -0.07960347
0.093808584 0.13965903 -0.04126637 -0.07384296 -0.026220541 -0.037009433 0.028341204 0.038786884
-0.18772377 -0.08919379 0.14680895 0.06193219 -0.030033939 -0.1353084 -0.13490482 -0.18427469
-0.07175186 0.058359113 0.11021916 0.0791489 -0.17690799 -0.12922949 -0.043659367 0.17428617
0.015591823 -0.06446266 0.061888013 -0.07952497 -0.13401309 0.12787455 -0.09052823 -0.04542871
-0.20094469 0.14490998 0.15987879 0.08333313 -0.10546567 -0.16182254 -0.13128631 0.17247361
0.118262164 0.18567166 0.057312593 0.0043919804 -0.046722975 -0.18264842 -0.19822091 -0.21286492
0.038930595 -0.13198479 -0.07406439 -0.11075604 -0.03506894 -0.13545309 -0.1257499 0.063837774
-0.057195473 0.118807755 -0.061739676 -0.14117508 -0.03395569 -0.09328968 -0.058878485 -0.18321164
00000000: 22ca 143e fac4 213e 6509 43bd 733d 323e
00000010: 87b4 35bd 6c70 163d 4c12 c6bd 06e0 e03d
00000020: 66c5 293e db42 33be b9db 0a3e 4fff 143b
00000030: 31ce db3d a6f9 a0bb 7f73 7d3d cd48 83bd
00000040: 56aa e53d 6fb5 03bc e563 b9bd 45bc 553d
00000050: bf8d b4bd c69c d3bc 53d2 9abd fc31 053e
00000060: 48ba 23be 1617 c4bd 1543 7cbd c891 50bd
00000070: a2a4 a93d af1d 00be 5418 723e 43c4 ccbd
00000080: 2591 5a3e a042 be3d fc2a a3ba 89c8 393e
00000090: e160 463d afda 303e 7499 1b3d 64b7 3ebd
000000a0: 055a 843d 3aec 19bd 1ab0 bb3d 4c90 3a3e
000000b0: a3dc fd3d d00b d2bc 2fb9 2a3e 512f b73d
000000c0: 1f4a 1a3e 45e6 8abd 9b87 0ebe 12a2 ddbc
000000d0: 20b8 d0bd f01d 533e cbfa bf3b 3efd f53c
000000e0: 6dbd 193c 600d 59bd 7e65 cf3d 4696 3ebe
000000f0: f4be 1bbd db9a 39be 9f9c 2e3c 2b45 babd
00000100: a4e4 143d 841b 86bd 1841 083e 0e55 0fbe
00000110: 1057 10be f978 12be 7785 143e 5fee 153d
00000120: 419e 113e 34dc 4abe 937c 6fbe 59af 47be
00000130: 49a0 2fbe 195c 0f3d 583e bc3c 1ddf ed3d
00000140: 570c 13be d612 20be fadf 983d 9280 dbbd
00000150: 5223 c03d cced 8ebd 522c ab3d 0b4d 2fbe
00000160: d0d5 f4bd fba8 0a3d e0ed 8d3d 685a b6bc
00000170: 08f0 0a3e a5bd 273e a23a d7bd eeab 97bd
00000180: 61ae 563e 62e7 fbbc e593 1fbd 23da 47be
00000190: 66b1 f3bd 3b72 d93c c6d0 ebbc faa4 0dbe
000001a0: e454 58bb 4739 06be 3394 22be 2c10 dfbd
000001b0: 4991 1fbe 5893 e4bd e1bb 403e f34e 3e3d
000001c0: 6519 8b3d 060d 39be 2840 f7bd 2da1 6dbd
000001d0: fbc1 f73c ba8b 0dbe dc4f 69bd e782 e0bd
000001e0: 8ad2 f23c 29af 47bd ac9b 99bb d8be d9bd
000001f0: 4bc9 e1bd 05cf cabd 8152 90bd dbb7 28be
00000200: e7ac 063e 5eef 30bd 3e10 1b3e 6a7c 093d
00000210: 024d 2abe 0f37 fe3d b7d1 8cbd 6aaa bbbd
00000220: e7e0 36be 0f00 6abe 7406 4f3d 87e7 44bd
00000230: 2d39 3f3d 4bfa 3ebe 03e1 df3d 2b15 3cbe
00000240: 50a8 18bd b019 213d cdaa a73d 0abd 293e
00000250: e2f0 3f3e 3685 24be 58d4 f63c 23bd c6bd
00000260: dbaf 2cbd a9dd 13be e2bf 353e c595 27be
00000270: 655c 043e 7c2a b43d 250a 2e3d c3e7 e6bd
00000280: 7e30 2a3e a2d9 663c 9d1d 243c cec7 3cbe
00000290: aaf8 863d 7421 23bd bea9 cebd 4643 173e
000002a0: a24f 013d 6b7c f9bd 63d6 f7bd 0ba8 01bd
000002b0: 206d af3d 02eb 8dbd ad3e fbbd d093 a6bd
000002c0: 35e0 25be f849 6a3d 84ba 093e 0247 4cbe
000002d0: 322b c03c 0ce6 9f3d 0876 6b3c ad90 acbd
000002e0: 5096 a93d 2639 a53d 6e67 683d c02c 51bd
000002f0: f51b 91bd 27aa 18bc b04e 75bd 2507 a3bd
00000300: b71e c03d c702 0f3e ed06 29bd fa3a 97bd
00000310: 76cc d6bc 3497 17bd d02b e83c ffde 1e3d
00000320: a93a 40be 3cab b6bd 1655 163e 9cac 7d3d
00000330: bc09 f6bc 498e 0abe 7d24 0abe 81b2 3cbe
00000340: a4f2 92bd f709 6f3d 95ba e13d d218 a23d
00000350: 5e27 35be bc54 04be 2ad4 32bd 1378 323e
00000360: d874 7f3c 0005 84bd 497e 7d3d fddd a2bd
00000370: ba3a 09be 8cf1 023e dd66 b9bd 7413 3abd
00000380: 72c4 4dbe 4863 143e 44b7 233e 8faa aa3d
00000390: 63fe d7bd cfb4 25be eb6f 06be ec9c 303e
000003a0: 6f33 f23d b620 3e3e 9cc0 6a3d 9aea 8f3b
000003b0: 9760 3fbd 3008 3bbe 6cfa 4abe 43f9 59be
000003c0: b075 1f3d 0527 07be 12af 97bd 10d4 e2bd
000003d0: 73a4 0fbd 37b4 0abe 95c4 00be 61bd 823d
000003e0: cd45 6abd 7b51 f33d bee2 7cbd 3390 10be
000003f0: 1f15 0bbd a90e bfbd 912a 71bd d59b 3bbe

conv_block_1.0.bias f4 [10]
0.019007841 -0.1984832 0.11300838 0.21631306 0.24090722 -0.020938097 -0.17898554 0.01825946
0.17003423 -0.19154726
00000000: 55b6 9b3c 2e3f 4bbe f070 e73d 2c81 5d3e
00000010: 62b0 763e 5f86 abbc fc47 37be dd94 953c
00000020: 741d 2e3e f724 44be

conv_block_1.2.weight f4 [10, 10, 3, 3]
-0.0024056935 -0.04902158 0.0009078213 -0.025274757 -0.025836535 -0.019791294 -0.07175125 0.11084259
0.10671642 -0.0709269 -0.0827881 -0.10147389 -0.14502051 -0.15544772 -0.019204628 -0.10544346
-0.11868291 -0.06348714 -0.0069534974 -0.0037091214 0.02683775 0.0022567452 -0.005582655 -0.021655029
-0.06717399 0.11065636 -0.018807223 0.115462676 0.06026849 0.11991514 0.18284985 0.13359044
0.010881022 0.13054301 0.18417053 0.1200503 0.14222254 0.18297908 0.06469174 0.08110655
0.000432693 0.059094947 0.14041387 0.12298554 0.008351909 -0.09628764 -0.055395577 -0.1673962
-0.192634 -0.08295063 -0.027182061 0.02811616 -0.10981973 -0.14385857 0.08447967 -0.044874415
-0.015358953 0.05056546 -0.04230227 -0.011493815 -0.009175294 -0.024938075 -0.053445883 -0.043197535
-0.025355965 -0.016400866 0.13750844 -0.011632844 -0.024642128 0.08031248 0.08604671 0.095586225
0.16079624 0.1549596 0.000754235 0.08946855 0.1506974 0.08476915 0.020176796 0.19009314
0.058077417 -0.060014185 -0.09503225 0.004708454 0.04671033 0.023333691 0.020844653 -0.07994106
-0.098440364 0.0018561893 0.1124813 0.07614566 -0.04542161 0.005031833 -0.059975274 -0.034606967
0.037948757 0.07471075 0.103684306 -0.035967156 0.1297718 -0.011911753 0.093453996 0.14328462
0.052574333 0.14490089 -0.040462356 0.005440105 0.07148029 -0.012426955 -0.009775115 -0.031516
0.0878886 0.06575602 0.049088694 -0.047620934 -0.07907624 -0.07661574 -0.054003656 -0.13589612
-0.109525934 -0.009388162 -0.079270065 -0.078792915 -0.10840959 -0.17747255 -0.18589535 -0.13160172
-0.14845242 -0.05389177 -0.12461649 -0.1499484 0.0026643593 -0.061381973 -0.024279576 0.0011867202
0.02005197 0.09098485 -0.05947335 -0.045085885 0.0042462028 -0.00336525 -0.032613922 0.101087995
0.06070556 0.02639746 -0.01769194 -0.09862329 -0.026604684 0.020777324 0.033794913 -0.018381618
-0.04207384 0.046380702 -0.0835958 0.06610834 -0.058963466 -0.014068249 -0.047529794 0.005170304
-0.040012415 0.06298372 -0.11876742 -0.024067778 0.005056584 -0.1690098 -0.1811505 -0.0077030123
-0.011983917 -0.18905032 -0.11366432 -0.10394684 -0.08628792 0.020359011 0.02804251 0.022344766
-0.028688679 0.097248234 0.0150712 -0.0622004 -0.026560038 0.019425951 0.02667742 -0.097575426
0.025989635 -0.06724318 -0.11457229 -0.068461195 0.09302693 0.06314585 0.071876295 0.05095338
0.05214578 -0.041105907 -0.06740616 0.03452299 -0.072762735 -0.08053635 -0.033660762 0.006148896
0.04224563 -0.022894336 -0.043946628 -0.004023609 -0.06347317 -0.0867629 0.036822233 0.00033621027
0.0783221 0.08442555 0.028479736 0.018142985 0.0061382847 0.0068254964 -0.010161213 -0.02557395
0.039362427 0.09800645 -0.027317766 -0.044558156 -0.025526417 -0.06904279 0.008575001 0.09681683
0.10052694 0.04839608 -0.07757399 -0.05657365 -0.023159618 -0.019429471 0.0086696725 -0.096762694
0.032808077 -0.08041378 -0.06669714 -0.08763541 0.091845155 -0.099816225 0.07951724 -0.0035435325
-0.012258969 0.06593122 -0.009742726 0.06610785 0.076212466 -0.09151738 0.040559795 0.019899053
0.022664225 0.01538885 0.028832695 -0.050708897 0.004614502 0.082026206 0.052703194 0.0044125104
00000000: d7a8 1dbb daca 48bd dbfa 6d3a 020d cfbc
00000010: 24a7 d3bc 5a21 a2bc 52f2 92bd 7101 e33d
00000020: 238e da3d 1f42 91bd cf8c a9bd 8bd1 cfbd
00000030: 4280 14be b02d 1fbe 0653 9dbc bef2 d7bd
00000040: 0710 f3bd 8c05 82bd 2ada e3bb bb14 73bb
00000050: d7da db3c e7e5 133b b4ee b6bb e365 b1bc
00000060: 8492 89bd cd9f e23d 9b11 9abc b277 ec3d
00000070: 18dc 763d 1296 f53d fe3c 3b3e efcb 083e
00000080: 5046 323c 11ad 053e 3397 3c3e efdc f53d
00000090: c9a2 113e de5e 3b3e 1a7d 843d 311b a63d
000000a0: 12db e239 8b0d 723d a7c8 0f3e d8df fb3d
000000b0: 72d6 083c 7432 c5bd 79e6 62bd e969 2bbe
000000c0: d941 45be 05e2 a9bd eaac debc dc53 e63c
000000d0: 2be9 e0bd a94f 13be ad03 ad3d 3cce 37bd
000000e0: 1ea4 7bbc ba1d 4f3d 2545 2dbd 8e50 3cbc
000000f0: f953 16bc ef4a ccbc 12ea 5abd e6ef 30bd
00000100: 50b7 cfbc 1c5b 86bc 03cf 0c3e af97 3ebc
00000110: 4ade c9bc df7a a43d 4239 b03d b6c2 c33d
00000120: c5a7 243e bbad 1e3e dbb7 453a 4a3b b73d
00000130: 6b50 1a3e 739b ad3d cf49 a53c c7a7 423e
00000140: 96e2 6d3d 6fd1 75bd 45a0 c2bd 6049 9a3b
00000150: 5553 3f3d 4c26 bf3c 68c2 aa3c 23b8 a3bd
00000160: 1a9b c9bd 614b f33a 995c e63d 41f2 9b3d
00000170: 030c 3abd 13e2 a43b a2a8 75bd 09c0 0dbd
00000180: 2870 1b3d f301 993d 7058 d43d 4c52 13bd
00000190: e6e2 043e 8329 43bc cf64 bf3d 34b9 123e
000001a0: 2f58 573d e660 143e dbbb 25bd e942 b23b
000001b0: 4264 923d 6d9a 4bbc ce27 20bc ec16 01bd
000001c0: f0fe b33d 18ab 863d 3a11 493d 2b0e 43bd
000001d0: b9f2 a1bd b7e8 9cbd f032 5dbd 5a28 0bbe
000001e0: 224f e0bd ced0 19bc 5858 a2bd 2e5e a1bd
000001f0: d905 debd 5dbb 35be 5a5b 3ebe 9ac2 06be
00000200: e903 18be 9ebd 5cbd ee36 ffbd 138c 19be
00000210: 889c 2e3b aa6b 7bbd f6e5 c6bc b98b 9b3a
00000220: 0744 a43c 4456 ba3d 549a 73bd faab 38bd
00000230: bb23 8b3b 878b 5cbb 2d96 05bd 3907 cf3d
00000240: 65a6 783d 7c3f d83c b0ee 90bc 02fb c9bd
00000250: 11f2 d9bc 3535 aa3c 896c 0a3d 0c95 96bc
00000260: 9e55 2cbd b1f9 3d3d 4634 abbd cf63 873d
00000270: ad83 71bd 837e 66bc 9aae 42bd a76b a93b
00000280: 0fe4 23bd 9cfd 803d 553c f3bd ca29 c5bc
00000290: b3b1 a53b e810 2dbe 847f 39be 8d69 fcbb
000002a0: 3158 44bc 6896 41be d7c8 e8bd 15e2 d4bd
000002b0: b9b7 b0bd f1c7 a63c 68b9 e53c 5f0c b73c
000002c0: 8504 ebbc 152a c73d 32ed 763c d9c5 7ebd
000002d0: 7094 d9bc 2c23 9f3c 9b8a da3c a0d5 c7bd
000002e0: 37e8 d43c cbb6 89bd e0a4 eabd 6235 8cbd
000002f0: e784 be3d 9d52 813d e133 933d 7eb4 503d
00000300: d096 553d ab5e 28bd 3e0c 8abd fb67 0d3d
00000310: a104 95bd 3ef0 a4bd dedf 09bd ae7c c93b
00000320: c109 2d3d e78c bbbc 6101 34bd 7bd8 83bb
00000330: 39fe 81bd bfb0 b1bd e9d2 163d 6145 b039
00000340: 5667 a03d 4ee7 ac3d 564e e93c 99a0 943c
00000350: aa23 c93b 6aa8 df3b 377b 26bc 7680 d1bc
00000360: 7f3a 213d 9bb7 c83d 82c9 dfbc 9d82 36bd
00000370: c71c d1bc 4e66 8dbd 297e 0c3c e747 c63d
00000380: 11e1 cd3d f83a 463d 1ddf 9ebd c6b9 67bd
00000390: 3db9 bdbc 8e2a 9fbc 3e0b 0e3c 852b c6bd
000003a0: c361 063d fbaf a4bd 8398 88bd 327a b3bd
000003b0: 5019 bc3d 736c ccbd efd9 a23d 9c3a 68bb
000003c0: d8d9 48bc f306 873d f49f 1fbc 8d63 873d
000003d0: 4815 9c3d 776d bbbd 0722 263d 5703 a33c
000003e0: 53aa b93c 8421 7c3c 8b32 ec3c 22b4 4fbd
000003f0: 4035 973b 5bfd a73d 4edf 573d d296 903b

conv_block_1.2.bias f4 [10]
0.06373199 0.0077656405 -0.114114754 -0.09128567 0.008635677 -0.044764552 -0.014200519 -0.028366014
0.01031727 0.043618612
00000000: eb85 823d ea76 fe3b ffb4 e9bd fbf3 babd
00000010: a87c 0d3c 095b 37bd 4ba9 68bc d85f e8bc
00000020: c409 293c 6ea9 323d

conv_block_2.0.weight f4 [10, 10, 3, 3]
-0.08382785 0.020983163 0.050036214 -0.13887072 -0.19971302 -0.12910962 -0.096681185 -0.07796299
-0.011129626 -0.0054369154 -0.03885087 -0.032782067 -0.014862009 0.12697662 -0.03210265 -0.05858775
0.058875013 -0.0046856855 0.076178804 0.047900178 0.07143874 -0.06894829 0.05539313 0.07072629
-0.060310915 0.116666675 0.10298053 -0.009481803 0.07050199 -0.04459956 -0.06757868 0.045787808
0.029981183 -0.06475675 0.06426482 -0.09753994 0.06509695 0.15658614 0.07598831 -0.10080068
0.02908841 0.034419972 0.04291009 0.014435532 0.07146926 -0.020422835 -0.015455825 0.052695155
0.010032028 0.058950774 -0.047824267 0.080218874 0.03922972 0.054761335 0.07891931 0.01838008
-0.09413161 -0.0031580634 -0.04405512 0.010719572 -0.007659497 -0.1028702 -0.021500828 -0.010392903
-0.03143255 0.09580233 -0.023011668 0.067234844 0.025335513 -0.09002521 0.022734111 0.08586965
-0.062171146 -0.058732364 0.113399394 0.07040644 -0.061576653 0.07756886 -0.019209357 -0.10881953
0.0076525914 0.046043538 -0.026534379 0.027718281 -0.07487024 0.084463485 0.085054964 0.06384742
0.02010989 0.026335977 -0.15663959 -0.09068162 -0.016682092 -0.10759478 -0.14739601 0.05382912
0.050934575 -0.1088201 0.013622902 0.06439889 0.11312092 0.059689913 0.10999929 -0.022058826
0.073345855 0.08344192 -0.100140125 -0.08297361 0.010397108 0.031078778 -0.062391795 -0.013162508
-0.02481253 0.014369646 -0.046507258 0.04115714 0.082176864 -0.075638294 0.0027076846 0.009634538
0.01979083 0.09690376 0.031460565 -0.02275599 0.086340256 -0.049521193 -0.03468539 0.022634676
-0.037300065 -0.035520505 -0.060581267 -0.022152271 -0.017140482 0.008261907 -0.08043938 -0.107045926
0.06910819 0.120464824 -0.053089343 0.090244986 -0.102663256 0.09904462 0.11634604 0.05337898
-0.087104484 0.05983817 0.05373463 -0.0026252347 0.098297976 -0.05517216 -0.025218463 -0.05300058
0.014090018 0.028811757 0.011230905 -0.05890925 -0.042153504 0.0416594 -0.092835255 -0.016652115
-0.0020935363 -0.043750092 0.048771843 0.0049364264 0.070582755 0.0019576526 -0.059177555 0.07452561
0.012050324 -0.0326745 -0.08365541 0.040680673 -0.09489078 0.020029966 0.058859088 -0.088898376
-0.07759622 -0.08496566 0.08147703 0.08544796 -0.121361405 0.014249153 -0.08278626 -0.22145493
-0.038166437 0.0061618867 0.054737803 -0.020879189 0.08460918 0.07619234 0.073784575 -0.11856441
0.09718429 -0.093937635 0.07834098 -0.014574588 -0.11605142 -0.00073621434 -0.04755538 -0.121308215
-0.03210451 -0.0143704135 0.09149904 -0.044328157 0.039627224 0.0005286878 0.019552 0.014255176
-0.06516962 -0.07039654 -0.022156414 -0.10644151 -0.045367703 0.0030114525 -0.056571443 -0.037671465
-0.022720829 -0.02438768 -0.07461342 -0.028991705 -0.06099841 -0.02631633 -0.022801869 -0.1000695
-0.12196686 0.0034321263 -0.12188857 -0.069307126 0.0478284 0.014707566 -0.048863772 0.17140675
0.073570214 -0.19343859 0.043137465 -0.07116617 -0.008583499 -0.032610483 -0.041114736 -0.03880414
0.09855464 0.058499962 0.028769713 0.0954148 -0.099396594 0.013366947 0.06299138 0.06501226
-0.08876061 0.03245961 -0.06600855 -0.010846179 -0.009254071 -0.06536899 -0.08005989 -0.06492417
00000000: f0ad abbd e2e4 ab3c c6f2 4c3d 2034 0ebe
00000010: 9281 4cbe 5035 04be c900 c6bd 0fab 9fbd
00000020: 0959 36bc 2728 b2bb 1722 1fbd 7d46 06bd
00000030: c97f 73bc 2906 023e 117e 03bd b5f9 6fbd
00000040: ed26 713d 618a 99bb a203 9c3d fa32 443d
00000050: 794e 923d c334 8dbd e8e3 623d f2d8 903d
00000060: 9408 77bd f0ee ee3d 75e7 d23d 9059 1bbc
00000070: 5963 903d 07ae 36bd b166 8abd ff8b 3b3d
00000080: 199b f53c 309f 84bd 469d 833d 05c3 c7bd
00000090: 8d51 853d 1e58 203e c29f 9b3d 9670 cebd
000000a0: d14a ee3c f5fb 0c3d 7ec2 2f3d 0283 6c3c
000000b0: 7a5e 923d ca4d a7bc 6e3a 7dbc e0d6 573d
000000c0: 605d 243c 5e76 713d 61e3 43bd cb49 a43d
000000d0: 58af 203d 6c4d 603d 72a0 a13d d291 963c
000000e0: 13c8 c0bd 83f7 4ebb 2473 34bd 25a1 2f3c
000000f0: 85fc fabb 9dad d2bd 8122 b0bc ff46 2abc
00000100: 6bbf 00bd 0334 c43d f782 bcbc 6cb2 893d
00000110: 6c8c cf3c 235f b8bd e33c ba3c 6ddc af3d
00000120: 2ca7 7ebd 5991 70bd f13d e83d 4031 903d
00000130: cd37 7cbd 6cdc 9e3d f15c 9dbc c6dc debd
00000140: 97c2 fa3b 2698 3c3d a05e d9bc 7311 e33c
00000150: 9255 99bd 31fb ac3d 4c31 ae3d 70c2 823d
00000160: 7fbd a43c 8cbe d73c 2166 20be 49b7 b9bd
00000170: e2a8 88bc a75a dcbd fbee 16be ec7b 5c3d
00000180: c6a0 503d 13dd debd 9832 5f3c 91e3 833d
00000190: f1ab e73d 697d 743d 4f47 e13d b6b4 b4bc
000001a0: 5a36 963d 99e3 aa3d 4416 cdbd 11ee a9bd
000001b0: a258 2a3c ec98 fe3c 8a8e 7fbd 8fa7 57bc
000001c0: a643 cbbc aa6e 6b3c 657e 3ebd 6494 283d
000001d0: 584c a83d 40e8 9abd 6973 313b 2eda 1d3c
000001e0: 6120 a23c 7b75 c63d cbdc 003d c56a babc
000001f0: 29d3 b03d bcd6 4abd 4412 0ebd 5b6c b93c
00000200: f4c7 18bd f37d 11bd 1024 78bd ae78 b5bc
00000210: 326a 8cbc f35c 073c 67bd a4bd e53a dbbd
00000220: 9888 8d3d 43b6 f63d 3674 59bd 5dd2 b83d
00000230: 1d41 d2bd e8d7 ca3d d546 ee3d eba3 5a3d
00000240: d663 b2bd de18 753d d818 5c3d 210c 2cbb
00000250: 7350 c93d 34fc 61bd f396 cebc 2317 59bd
00000260: d2d9 663c a206 ec3c d401 383c d34a 71bd
00000270: 27a9 2cbd 0ca3 2a3d 6920 bebd 046a 88bc
00000280: b633 09bb 4c33 33bd fcc4 473d bfc1 a13b
00000290: b18d 903d f64b 003b 2a64 72bd e2a0 983d
000002a0: b96e 453c b2d5 05bd 8753 abbd c7a0 263d
000002b0: 1956 c2bd e215 a43c 3a16 713d 5a10 b6bd
000002c0: c4ea 9ebd 7a02 aebd 6edd a63d 57ff ae3d
000002d0: 548c f8bd 4875 693c d88b a9bd 15c5 62be
000002e0: 6954 1cbd a7e9 c93b bf34 603d d50a abbc
000002f0: 9447 ad3d bb0a 9c3d 5e1c 973d e6d1 f2bd
00000300: 8f08 c73d 6062 c0bd 3c71 a03d 41ca 6ebc
00000310: 5eac edbd 82fe 40ba 6ec9 42bd 7170 f8bd
00000320: 0580 03bd e271 6bbc d963 bb3d 7191 35bd
00000330: 2850 223d a397 0a3a 842b a03c 8b8e 693c
00000340: a677 85bd 102c 90bd 5e81 b5bc 02fe d9bd
00000350: 7cd3 39bd ca5b 453b 75b7 67bd 654d 1abd
00000360: 0821 babc acc8 c7bc ecce 98bd 0380 edbc
00000370: 78d9 79bd 5895 d7bc fcca babc 3df1 ccbd
00000380: c3c9 f9bd 86ed 603b b7a0 f9bd e5f0 8dbd
00000390: b6e7 433d 01f8 703c 6125 48bd 4085 2f3e
000003a0: fbab 963d c414 46be e9b0 303d 92bf 91bd
000003b0: cea1 0cbc 9292 05bd ed67 28bd 17f1 1ebd
000003c0: 04d7 c93d a89d 6f3d 76ae eb3c d668 c33d
000003d0: 7190 cbbd 0a01 5b3c a001 813d 2625 853d
000003e0: 1fc8 b5bd 5ef4 043d 7e2f 87bd 2cb4 31bc
000003f0: 639e 17bc 2de0 85bd 71f6 a3bd f7f6 84bd

conv_block_2.0.bias f4 [10]
0.052982543 0.0060816105 0.021040345 0.077733204 -0.0653837 -0.06798017 0.062112965 0.0012435674
-0.049405288 -0.09259024
00000000: 3904 593d 3f48 c73b cd5c ac3c 9632 9f3d
00000010: e4e7 85bd 3039 8bbd 2a6a 7e3d 33ff a23a
00000020: 335d 4abd f49f bdbd

conv_block_2.2.weight f4 [10, 10, 3, 3]
0.078539565 -0.018431408 -0.03897427 -0.063679256 -0.043767218 0.027599454 -0.033149164 0.057567704
-0.03600982 -0.04625802 0.031946503 -0.03015543 -0.055597696 0.007540485 0.05551813 -0.012030829
0.039934497 0.033766747 -0.0476435 -0.03411258 -0.025767172 -0.04858812 0.04116228 0.048026726
-0.013014364 -0.056936193 0.039771423 -0.09037498 0.07003495 0.04580968 0.06045733 -0.015240285
-0.08939994 0.062009078 -0.060429703 0.011245616 0.0597191 -0.09850765 0.0069953725 -0.037444152
0.0628729 -0.05517907 0.064001314 0.06573005 0.058155857 0.07349615 -0.008031577 -0.09554096
0.08100039 -0.014286152 -0.022181632 -0.10041173 -0.023691388 -0.026771206 0.10112508 0.071540736
0.07251069 0.063436665 -0.07613601 -0.057314727 -0.060469635 -0.062891036 0.062468305 0.0017495606
0.0511644 -0.042203363 -0.12219556 -0.06706789 0.03272256 0.03761203 0.0012482028 -0.06875595
-0.11085282 -0.038471412 0.054958325 -0.04251764 0.07573723 0.028781062 -0.028091397 0.10186358
-0.033871427 -0.0035019775 -0.04015176 -0.09998822 0.016995998 0.030460037 -0.0530716 0.06466298
-0.094557956 -0.10161206 -0.12689751 -0.09582572 -0.056747563 -0.07695449 -0.010653191 -0.13613437
-0.006738172 -0.034405287 0.002119687 0.08958866 0.031016082 -0.096173264 -0.12584162 -0.11348333
-0.13289504 0.0021454203 -0.082838774 -0.0038772807 0.056795225 -0.029178591 -0.01751892 0.025174573
-0.037307814 0.050550215 -0.08578202 0.041146193 -0.09723606 -0.12207072 -0.059408505 0.015812926
0.03299437 -0.023081597 -0.057089873 -0.04696135 -0.095213026 -0.062473465 -0.0072831414 0.08969934
0.061690155 -0.08435101 0.012386537 -0.052885424 -0.016732758 -0.083775915 0.02740231 -0.051711332
0.080347344 0.112033 -0.0725594 -0.099239014 0.0041128243 -0.02942517 0.027765298 -0.07135301
-0.013436694 -0.14886463 -0.103136815 -0.11923586 -0.019435925 -0.06289243 -0.13905944 -0.10593734
-0.08899574 -0.08569013 0.013689497 0.032752033 -0.009499492 -0.05082565 -0.01264527 -0.06901665
-0.06855989 -0.01346942 0.06820278 0.005396623 0.052247096 -0.041483857 -0.028059712 -0.10034376
0.08732999 0.12787752 -0.0022139365 0.06697386 0.086218625 0.05235863 0.054287802 -0.10034862
-0.099049985 -0.080905855 0.0329705 -0.09117655 -0.17720956 -0.14903118 -0.18252052 -0.0501872
-0.06613255 -0.12414715 0.14117236 0.0028822753 -0.0008580166 -0.010351407 -0.02693984 -0.12977278
-0.14500739 -0.21031566 -0.12759276 0.08881707 0.019708546 -0.09991679 -0.104265146 -0.14846823
-0.10464745 -0.0070136995 -0.12002131 -0.12526199 -0.00518379 -0.12135004 -0.13506846 -0.15953009
-0.10998381 0.015764933 -0.0286478 -0.09410129 -0.054996673 0.010425858 -0.06423278 -0.15860844
-0.06494397 -0.07161007 -0.002676583 -0.09649181 -0.007233898 -0.038545214 0.10344549 0.08567919
0.06122736 0.005911588 -0.056450784 0.052547738 -0.07283038 -0.04495747 -0.021175181 -0.024766402
-0.10744194 0.06619986 -0.0015607803 -0.15554547 -0.059641246 -0.055002727 -0.07529133 -0.06936552
0.12784527 0.02846132 -0.068389215 -0.01034692 0.050530184 0.016328134 0.019359568 -0.041777354
-0.055376172 0.02334041 -0.033741508 0.036901228 0.029603353 0.10615798 -0.023813365 -0.02861056
00000000: 5ad9 a03d 77fd 96bc 7ca3 1fbd 456a 82bd
00000010: 4145 33bd 4018 e23c 6bc7 07bd 1dcc 6b3d
00000020: 087f 13bd 0d79 3dbd 56da 023d 8508 f7bc
00000030: 69ba 63bd 2c16 f73b fb66 633d f41c 45bc
00000040: 5b92 233d 004f 0a3d d525 43bd a2b9 0bbd
00000050: ad15 d3bc 5604 47bd c799 283d acb7 443d
00000060: 333a 55bc ed35 69bd 5ce7 223d 8416 b9bd
00000070: 7c6e 8f3d eea2 3b3d 1ba2 773d 63b2 79bc
00000080: 5117 b7bd 3bfd 7d3d 2385 77bd 883f 383c
00000090: 049c 743d 61be c9bd 7039 e53b 0a5f 19bd
000000a0: 82c3 803d 7303 62bd 1f13 833d 7a9d 863d
000000b0: d634 6e3d 2685 963d e096 03bc fbaa c3bd
000000c0: 88e3 a53d 7710 6abc 41b6 b5bc aaa4 cdbd
000000d0: 7114 c2bc 4a4f dbbc aa1a cf3d f383 923d
000000e0: 7c80 943d 15eb 813d 32ed 9bbd d9c2 6abd
000000f0: 02af 77bd 04cd 80bd c4de 7f3d 8351 e53a
00000100: c391 513d 6fdd 2cbd aa41 fabd e45a 89bd
00000110: 1708 063d 120f 1a3d bc9a a33a ebcf 8cbd
00000120: ce06 e3bd 3394 1dbd fb1b 613d fa26 2ebd
00000130: 1f1c 9b3d 43c6 eb3c ee1f e6bc da9d d03d
00000140: c4bc 0abd 6f81 65bb 2c76 24bd a0c6 ccbd
00000150: 313b 8b3c 5487 f93c 9b61 59bd 066e 843d
00000160: 9aa7 c1bd fc19 d0bd 6cf1 01be 4640 c4bd
00000170: 2270 68bd 519a 9dbd b98a 2ebc cf66 0bbe
00000180: e2cb dcbb 8fec 0cbd 72ea 0a3b 427a b73d
00000190: 7015 fe3c 7df6 c4bd a0dc 00be f369 e8bd
000001a0: a315 08be 2e9a 0c3b 60a7 a9bd fa19 7ebb
000001b0: 1ca2 683d f107 efbc d783 8fbc e83a ce3c
000001c0: 14d0 18bd be0d 4f3d 7cae afbd e988 283d
000001d0: b323 c7bd 3700 fabd 5556 73bd 1c8a 813c
000001e0: 1b25 073d 9e15 bdbc 12d7 69bd 8b5a 40bd
000001f0: 0cff c2bd 2de4 7fbd 6ba7 eebb 4ab4 b73d
00000200: d1ae 7c3d 39c0 acbd e7f0 4a3c 639e 58bd
00000210: 2313 89bc b592 abbd cf7a e03c 43cf 53bd
00000220: 268d a43d 8f71 e53d 069a 94bd d33d cbbd
00000230: dfc4 863b 0e0d f1bc 0d74 e33c 8721 92bd
00000240: 9425 5cbc f86f 18be 6539 d3bd ee31 f4bd
00000250: 1738 9fbc bfcd 80bd 9965 0ebe adf5 d8bd
00000260: 6643 b6bd 4f7e afbd e949 603c ff26 063d
00000270: c2a3 1bbc 8f2e 50bd 1b2e 4fbc 9a58 8dbd
00000280: 2169 8cbd d8ae 5cbc e6ad 8b3d 28d6 b03b
00000290: 0d01 563d faea 29bd 7bdd e5bc 0781 cdbd
000002a0: 11da b23d 53f2 023e b117 11bb 9729 893d
000002b0: 6493 b03d 0176 563d e35c 5e3d 9483 cdbd
000002c0: b8da cabd f8b1 a5bd 130c 073d c5ba babd
000002d0: 6c76 35be a19b 18be a9e6 3abe 1891 4dbd
000002e0: 8170 87bd dc40 febd 7d8f 103e 8ee4 3c3b
000002f0: 85ec 60ba f398 29bc f0b0 dcbc 28e3 04be
00000300: d17c 14be fd5c 57be ada7 02be b9e5 b53d
00000310: d173 a13c 2da1 ccbd f788 d5bd 0e08 18be
00000320: 6751 d6bd 2dd3 e5bb bccd f5bd ae44 00be
00000330: c8dc a9bb 5f86 f8bd 634f 0abe db5b 23be
00000340: 313f e1bd 7625 813c cbae eabc 2db8 c0bd
00000350: 3144 61bd 38d1 2a3c 7a8c 83bd 406a 22be
00000360: 5801 85bd 4da8 92bd 9c69 2fbb 809d c5bd
00000370: 560a edbb 96e1 1dbd 3bdb d33d 9278 af3d
00000380: 8ac9 7a3d ffb5 c13b f038 67bd 4c3c 573d
00000390: 1828 95bd 5325 38bd 9377 adbc e9e2 cabc
000003a0: 850a dcbd cb93 873d 1993 ccba 5047 1fbe
000003b0: 614a 74bd 8a4a 61bd 5732 9abd 820f 8ebd
000003c0: dfe9 023e b727 e93c a50f 8cbd 2186 29bc
000003d0: bdf8 4e3d 94c2 853c f597 9e3c bb1e 2bbd
000003e0: 20d2 62bd 6334 bf3c 8934 0abd be25 173d
000003f0: bb82 f23c 5b69 d93d 3f14 c3bc b160 eabc

conv_block_2.2.bias f4 [10]
0.043598182 0.1628815 0.12571342 -0.09601737 0.00091515406 -0.05657061 -0.046472967 0.09072166
-0.06593894 -0.07549103
00000000: 0294 323d 68ca 263e 05bb 003e c1a4 c4bd
00000010: f3e6 6f3a 95b6 67bd 705a 3ebd 47cc b93d
00000020: ff0a 87bd 0b9b 9abd

classifier.1.weight f4 [3, 1690]
-0.0021145844 0.04429344 0.032155786 0.042044427 0.015891682 -0.02158863 0.013484559 0.01856378
0.011711162 0.010263431 -0.008811444 0.007427678 0.027171157 0.004615308 0.024346795 0.008615915
0.012564803 -0.014010999 -0.03891421 -0.029211774 -0.0037974461 -0.0145918615 -0.0050623533 -0.018518858
0.02155916 -3.6027009e-06 0.00033888008 0.0004306182 -0.024414979 -0.0183962 -0.0119593665 -0.0090237465
-0.03357261 -0.01002648 -0.033589363 0.0029849883 0.0053287265 -0.01812837 -0.024184937 -0.02948104
0.0071015754 0.017954959 0.023513637 0.0054278164 0.021325883 0.032309152 0.003798379 -0.010199444
-0.022909338 0.011158766 -0.0024292045 -0.0016013246 -0.0105629 0.021729937 -0.0062167626 -0.0030648345
0.02880581 -0.002279248 0.05368503 0.03393204 0.006842467 0.033826906 0.00864424 0.0058157127
-0.025451368 -0.025157757 0.01649821 0.04310049 0.017204965 -0.00043786972 0.021395396 0.041653555
0.006986211 -0.009472625 -0.0045610075 0.010188438 0.015181575 0.005173457 0.013104006 0.028536228
0.03441395 -0.0062346677 -0.0060545714 0.020713272 0.020862276 0.011694485 -0.016785113 0.03113649
-0.0018221597 0.018630462 0.002378706 0.024219187 -0.0074895485 0.008343376 0.025827805 0.029057978
0.008450974 0.04413229 0.01933758 0.004850726 0.011994989 0.019953437 0.009963106 0.015934024
0.001407606 0.014873001 0.009628969 0.056739252 0.025891867 0.013451882 0.040507056 0.03213514
0.031092392 0.008724741 0.025092464 0.0034717892 -0.0036516448 0.0061162063 0.033386476 0.054001324
0.02981585 0.03149626 0.042416733 0.017536739 0.02672023 0.01246356 0.02296518 -0.002815336
0.0103008915 -0.0029387267 -0.024960356 -0.01211091 -0.0024839912 0.0053128046 0.02141371 0.02509654
0.04791555 0.005702186 0.027057374 -0.0054858313 0.0074854665 0.01928909 -0.012048728 0.006363072
-0.020485718 0.02088665 0.007816329 0.037290853 0.03891382 0.008491446 0.011536994 0.020526035
-0.0071129613 0.03935064 0.008134839 0.030624501 -0.035960153 -0.033186663 -0.0069790315 -0.01913655
0.029123524 0.028907813 0.037766635 -0.009523185 0.0134387165 0.02091951 0.042453937 0.006210436
0.015228956 -0.05465165 -0.07543053 -0.08957109 -0.04264837 -0.02437024 0.006024549 0.014715287
0.017347077 -0.028125187 -0.05704581 -0.049787693 -0.10466894 -0.05085662 -0.06495642 0.021309687
-0.03348299 -0.051773686 -0.050282467 -0.05378508 0.04419626 0.028047206 -0.038259257 -0.031226352
-0.008138242 -0.025110178 -0.019469058 0.0039064167 0.020100161 0.0076703597 -0.065190464 -0.08896235
-0.064616896 0.0057107676 -0.018128654 -0.061877344 -0.037556108 -0.02574538 0.017376902 0.087037854
-0.03021424 -0.04304248 -0.017001707 -0.025517954 -0.056944378 -0.13926612 -0.12229473 -0.08585017
-0.11993386 -0.08753642 -0.121607155 -0.037508484 0.04459422 -0.015734095 -0.032413635 0.020382622
-0.017100232 -0.05591774 -0.12267615 -0.13758495 -0.08305602 -0.06414071 -0.11166472 -0.09486169
-0.039128534 0.026512444 0.015586472 -0.03969809 -0.092258245 -0.07349461 -0.08092641 -0.10965029
-0.033248648 -0.004759611 -0.03396292 -0.07257663 -0.09576036 -0.026652675 0.0046662535 -0.0419201
-0.011210173 -0.022414401 -0.023623431 -0.06125063 -0.05648215 -0.09083271 -0.07464434 -0.080408625
00000000: d794 0abb 0a6d 353d c9b5 033d c736 2c3d
00000010: 462f 823c a3da b0bc 57ee 5c3c 1113 983c
00000020: 2ce0 3f3c f327 283c e05d 10bc e163 f33b
00000030: 0c96 de3c 023c 973b ee72 c73c c429 0d3c
00000040: 9adc 4d3c 648e 65bc 8264 1fbd 884d efbc
00000050: 93de 78bb b412 6fbc 19e2 a5bb dcb4 97bc
00000060: d69c b03c eec5 71b6 b7ab b139 99c4 e139
00000070: ec01 c8bc a1b3 96bc 38f1 43bc 56d8 13bc
00000080: 6f83 09bd 1b46 24bc 0095 09bd cb9f 433b
00000090: 999c ae3b f381 94bc 7d1f c6bc 3982 f1bc
000000a0: 55b4 e83b 4716 933c ac9f c03c d3db b13b
000000b0: 9eb3 ae3c 9a56 043d 3aee 783b 921b 27bc
000000c0: 5dac bbbc 42d3 363c 4a33 1fbb 8ae3 d1ba
000000d0: 0410 2dbc fb02 b23c fcb5 cbbb 64db 48bb
000000e0: 29fa eb3c 705f 15bb d6e4 5b3d 53fc 0a3d
000000f0: c636 e03b 158e 0a3d 92a0 0d3c bc91 be3b
00000100: 637f d0bc a417 cebc 4127 873c 248a 303d
00000110: 6df1 8c3c e191 e5b9 6645 af3c eb9c 2a3d
00000120: 96ec e43b 1233 1bbc 8174 95bb 68ed 263c
00000130: 24bc 783c 1a86 a93b 2fb2 563c cfc4 e93c
00000140: a4f5 0c3d 2f4c ccbb 6d65 c6bb e1ae a93c
00000150: 5de7 aa3c 3a9a 3f3c ef80 89bc f411 ff3c
00000160: 89d5 eeba e99e 983c 10e4 1b3b 5167 c63c
00000170: e36a f5bb a8b2 083c d594 d33c ff0a ee3c
00000180: f475 0a3c 0fc4 343d d869 9e3c d7f2 9e3b
00000190: a186 443c 6475 a33c 4c3c 233c 1288 823c
000001a0: 6b7f b83a e3ad 733c d3c2 1d3c 6b67 683d
000001b0: 2e1b d43c 4865 5c3c baea 253d 23a0 033d
000001c0: 79b5 fe3c 37f2 0e3c b68e cd3c f586 633b
000001d0: 6f50 6fbb 756a c83b 42c0 083d 7e30 5d3d
000001e0: 5f40 f43c 3902 013d 2bbd 2d3d 35a9 8f3c
000001f0: 62e4 da3c f633 4c3c 7921 bc3c 8081 38bb
00000200: 12c5 283c a797 40bb a979 ccbc d76c 46bc
00000210: 75ca 22bb 0917 ae3b ce6b af3c 4297 cd3c
00000220: 1943 443d 67d9 ba3b 6da7 dd3c 7dc2 b3bb
00000230: a548 f53b 2704 9e3c 0768 45bc 5181 d03b
00000240: aad1 a7bc 7b1a ab3c 0f10 003c 4bbe 183d
00000250: 1964 1f3d b51f 0b3c a905 3d3c 3726 a83c
00000260: d813 e9bb 232e 213d fd47 053c 3ce0 fa3c
00000270: f44a 13bd bdee 07bd 5cb0 e4bb 41c4 9cbc
00000280: 7594 ee3c 14d0 ec3c 30b1 1a3d 2207 1cbc
00000290: 102e 5c3c 645f ab3c 2ee4 2d3d ea80 cb3b
000002a0: df82 793c 69da 5fbd 527b 9abd 0c71 b7bd
000002b0: 0fb0 2ebd 19a4 c7bc 9469 c53b 6318 713c
000002c0: 751b 8e3c cb66 e6bc dea8 69bd 2eee 4bbd
000002d0: ab5c d6bd 084f 50bd df07 85bd a791 ae3c
000002e0: 7625 09bd a510 54bd fdf4 4dbd be4d 5cbd
000002f0: 2307 353d 41c3 e53c bdb5 1cbd 68ce ffbc
00000300: 4356 05bc dcb3 cdbc 937d 9fbc 6601 803b
00000310: 18a9 a43c a457 fb3b 9482 85bd e431 b6bd
00000320: dd55 84bd 6421 bb3b 8b82 94bc 1973 7dbd
00000330: 6fd4 19bd fae7 d2bc 015a 8e3c e740 b23d
00000340: db83 f7bc 504d 30bd 2a47 8bbc 070b d1bc
00000350: 823e 69bd c79b 0ebe a975 fabd 37d2 afbd
00000360: e29f f5bd 4b46 b3bd 2c0d f9bd 7fa2 19bd
00000370: 6ea8 363d cae4 80bc 29c4 04bd 75f9 a63c
00000380: c915 8cbc 000a 65bd a23d fbbd 12e3 0cbe
00000390: 4619 aabd 345c 83bd 79b0 e4bd d946 c2bd
000003a0: 3e45 20bd a030 d93c 675e 7f3c 779a 22bd
000003b0: e4f1 bcbd 5884 96bd bfbc a5bd 5590 e0bd
000003c0: bc2f 08bd 83f6 9bbb b41c 0bbd 0ea3 94bd
000003d0: 021e c4bd b656 dabc 5fe7 983b 69b4 2bbd
000003e0: e0aa 37bc 689e b7bc ed85 c1bc f1e1 7abd
000003f0: d459 67bd 8006 babd 22df 98bd 47ad a4bd

classifier.1.bias f4 [3]
0.08075673 -0.06764732 -0.038882233
00000000: c963 a53d ae8a 8abd fa42 1fbd
